hey_talos.tflite (tflite, 60936 bytes, 18 tensors)

tfl.pseudo_qconst1 i1 [1, 1088] scale=0.005558531 zero_point=0
0	0x06	0.033351183
1	0xd3	-0.25013387
2	0xc6	-0.3223948
3	0xef	-0.09449502
4	0xe0	-0.17787299
5	0x03	0.016675591
6	0x24	0.20010711
7	0xe7	-0.13896327
8	0xf9	-0.038909715
9	0xbc	-0.37798008
10	0xf9	-0.038909715
11	0xec	-0.11117062
12	0x31	0.272368
13	0xeb	-0.11672915
14	0x17	0.12784621
15	0x0a	0.05558531
16	0xe6	-0.1445218
17	0xf1	-0.083377965
18	0x05	0.027792655
19	0xf7	-0.050026778
20	0x09	0.050026778
21	0x01	0.005558531
22	0xea	-0.122287676
23	0xf6	-0.05558531
24	0xf2	-0.07781943
25	0xee	-0.100053556
26	0xf7	-0.050026778
27	0x06	0.033351183
28	0xf5	-0.061143838
29	0xcd	-0.28348508
30	0x29	0.22789976
31	0xc3	-0.33907038
32	0x27	0.2167827
33	0xe1	-0.17231445
34	0xd5	-0.23901683
35	0xfd	-0.016675591
36	0xe7	-0.13896327
37	0x06	0.033351183
38	0x0a	0.05558531
39	0xed	-0.105612084
40	0xdf	-0.18343152
41	0xfe	-0.011117062
42	0xd8	-0.22234124
43	0xf2	-0.07781943
44	0xea	-0.122287676
45	0xf6	-0.05558531
46	0xed	-0.105612084
47	0xd4	-0.24457535
48	0x15	0.11672915
49	0xf1	-0.083377965
50	0xe0	-0.17787299
51	0xfa	-0.033351183
52	0x0d	0.0722609
53	0xd6	-0.2334583
54	0xd4	-0.24457535
55	0xed	-0.105612084
56	0xfb	-0.027792655
57	0xe1	-0.17231445
58	0xb9	-0.39465567
59	0x04	0.022234123
60	0xd2	-0.25569242
61	0xdb	-0.20566563
62	0xda	-0.21122417
63	0xf5	-0.061143838
64	0xf5	-0.061143838
65	0xc1	-0.35018745
66	0xcb	-0.29460213
67	0xfe	-0.011117062
68	0xd1	-0.26125094
69	0xee	-0.100053556
70	0x14	0.11117062
71	0xf5	-0.061143838
72	0x00	0.0
73	0xce	-0.27792653
74	0xf9	-0.038909715
75	0xfc	-0.022234123
76	0x1f	0.17231445
77	0xf9	-0.038909715
78	0x0c	0.066702366
79	0xfa	-0.033351183
80	0xe2	-0.16675593
81	0xd3	-0.25013387
82	0x03	0.016675591
83	0xf5	-0.061143838
84	0x0c	0.066702366
85	0xe0	-0.17787299
86	0xe7	-0.13896327
87	0xf3	-0.0722609
88	0x09	0.050026778
89	0xe3	-0.1611974
90	0xec	-0.11117062
91	0x02	0.011117062
92	0xff	-0.005558531
93	0xed	-0.105612084
94	0x19	0.13896327
95	0xdf	-0.18343152
96	0x0a	0.05558531
97	0x02	0.011117062
98	0xd5	-0.23901683
99	0xed	-0.105612084
100	0xfb	-0.027792655
101	0x04	0.022234123
102	0x1b	0.15008034
103	0xfc	-0.022234123
104	0xdd	-0.19454858
105	0x11	0.09449502
106	0xdf	-0.18343152
107	0xec	-0.11117062
108	0xed	-0.105612084
109	0xf4	-0.066702366
110	0xe4	-0.15563886
111	0xe9	-0.12784621
112	0x0c	0.066702366
113	0x06	0.033351183
114	0xcd	-0.28348508
115	0xf3	-0.0722609
116	0x19	0.13896327
117	0xd9	-0.2167827
118	0xe5	-0.15008034
119	0xf9	-0.038909715
120	0xf7	-0.050026778
121	0xe6	-0.1445218
122	0xd2	-0.25569242
123	0x08	0.044468246
124	0xde	-0.18899004
125	0xe9	-0.12784621
126	0xea	-0.122287676
127	0xfe	-0.011117062
128	0x10	0.08893649
129	0xbd	-0.37242156
130	0xd8	-0.22234124
131	0xec	-0.11117062
132	0xf3	-0.0722609
133	0xe1	-0.17231445
134	0x13	0.105612084
135	0x05	0.027792655
136	0xf7	-0.050026778
137	0xef	-0.09449502
138	0xf9	-0.038909715
139	0xfa	-0.033351183
140	0x1c	0.15563886
141	0xf2	-0.07781943
142	0x08	0.044468246
143	0xe6	-0.1445218
144	0xd9	-0.2167827
145	0xd9	-0.2167827
146	0x06	0.033351183
147	0xfc	-0.022234123
148	0xff	-0.005558531
149	0xdb	-0.20566563
150	0xe9	-0.12784621
151	0x02	0.011117062
152	0x1a	0.1445218
153	0xce	-0.27792653
154	0xfc	-0.022234123
155	0xf2	-0.07781943
156	0xfd	-0.016675591
157	0xff	-0.005558531
158	0x12	0.100053556
159	0xe6	-0.1445218
160	0x07	0.038909715
161	0xf2	-0.07781943
162	0xe4	-0.15563886
163	0xf4	-0.066702366
164	0xfa	-0.033351183
165	0x18	0.13340473
166	0x11	0.09449502
167	0xfd	-0.016675591
168	0xdd	-0.19454858
169	0x11	0.09449502
170	0xe3	-0.1611974
171	0x00	0.0
172	0xf7	-0.050026778
173	0xf4	-0.066702366
174	0xdb	-0.20566563
175	0xf8	-0.044468246
176	0xfb	-0.027792655
177	0xef	-0.09449502
178	0xe1	-0.17231445
179	0xf2	-0.07781943
180	0x0a	0.05558531
181	0xec	-0.11117062
182	0xf6	-0.05558531
183	0xfe	-0.011117062
184	0xf6	-0.05558531
185	0xeb	-0.11672915
186	0xe7	-0.13896327
187	0x0c	0.066702366
188	0xed	-0.105612084
189	0xf9	-0.038909715
190	0xcf	-0.272368
191	0xfc	-0.022234123
192	0x05	0.027792655
193	0xb5	-0.41688982
194	0xe7	-0.13896327
195	0xde	-0.18899004
196	0xfb	-0.027792655
197	0xf3	-0.0722609
198	0x10	0.08893649
199	0x09	0.050026778
200	0xf8	-0.044468246
201	0x06	0.033351183
202	0x07	0.038909715
203	0xe9	-0.12784621
204	0x18	0.13340473
205	0xfa	-0.033351183
206	0xf4	-0.066702366
207	0xc7	-0.31683627
208	0xd5	-0.23901683
209	0xc7	-0.31683627
210	0x09	0.050026778
211	0xed	-0.105612084
212	0xfd	-0.016675591
213	0xe1	-0.17231445
214	0xfd	-0.016675591
215	0xff	-0.005558531
216	0x0a	0.05558531
217	0xc6	-0.3223948
218	0x05	0.027792655
219	0x0b	0.061143838
220	0x08	0.044468246
221	0xf7	-0.050026778
222	0x13	0.105612084
223	0xe7	-0.13896327
224	0x01	0.005558531
225	0xdf	-0.18343152
226	0xdf	-0.18343152
227	0x12	0.100053556
228	0xe3	-0.1611974
229	0x08	0.044468246
230	0xfa	-0.033351183
231	0xdf	-0.18343152
232	0xd7	-0.22789976
233	0xff	-0.005558531
234	0xdf	-0.18343152
235	0x03	0.016675591
236	0xec	-0.11117062
237	0x06	0.033351183
238	0xe8	-0.13340473
239	0x01	0.005558531
240	0xf8	-0.044468246
241	0xef	-0.09449502
242	0xd8	-0.22234124
243	0xfe	-0.011117062
244	0xfe	-0.011117062
245	0xfa	-0.033351183
246	0xf8	-0.044468246
247	0xfe	-0.011117062
248	0xfa	-0.033351183
249	0xd2	-0.25569242
250	0xee	-0.100053556
251	0xf8	-0.044468246
252	0x00	0.0
253	0xf0	-0.08893649
254	0xe6	-0.1445218
255	0xf8	-0.044468246

tfl.pseudo_qconst3 i1 [64, 1, 1, 64]
0	0xed	-19
1	0xf6	-10
2	0xec	-20
3	0xd6	-42
4	0xfe	-2
5	0x2d	45
6	0x06	6
7	0x3e	62
8	0xc5	-59
9	0xeb	-21
10	0xd9	-39
11	0x05	5
12	0x21	33
13	0xff	-1
14	0xed	-19
15	0x0e	14
16	0x27	39
17	0x25	37
18	0x0b	11
19	0xf6	-10
20	0x31	49
21	0x19	25
22	0x10	16
23	0xed	-19
24	0xf5	-11
25	0x06	6
26	0x0e	14
27	0xde	-34
28	0x08	8
29	0xfb	-5
30	0xf4	-12
31	0xc3	-61
32	0x04	4
33	0xc4	-60
34	0x14	20
35	0x1e	30
36	0x81	-127
37	0x1d	29
38	0xe9	-23
39	0x41	65
40	0x01	1
41	0x2f	47
42	0x06	6
43	0x05	5
44	0x03	3
45	0xe4	-28
46	0xf4	-12
47	0xe1	-31
48	0xe7	-25
49	0x19	25
50	0x50	80
51	0xe4	-28
52	0x27	39
53	0x1a	26
54	0xe5	-27
55	0x34	52
56	0xf3	-13
57	0xfb	-5
58	0x19	25
59	0x0d	13
60	0x13	19
61	0xf8	-8
62	0x27	39
63	0x20	32
64	0xf9	-7
65	0xfa	-6
66	0xe7	-25
67	0x26	38
68	0xe2	-30
69	0xfd	-3
70	0x37	55
71	0xf1	-15
72	0x1b	27
73	0x30	48
74	0xe8	-24
75	0xd6	-42
76	0xef	-17
77	0x5c	92
78	0x01	1
79	0xd2	-46
80	0x0c	12
81	0x20	32
82	0xcb	-53
83	0xed	-19
84	0xc1	-63
85	0x08	8
86	0xe1	-31
87	0xca	-54
88	0xab	-85
89	0xf2	-14
90	0x08	8
91	0xa0	-96
92	0xf7	-9
93	0x0f	15
94	0x2e	46
95	0x1f	31
96	0x2e	46
97	0x24	36
98	0xf7	-9
99	0xcf	-49
100	0xfa	-6
101	0x19	25
102	0x23	35
103	0xeb	-21
104	0x1a	26
105	0xdc	-36
106	0x5f	95
107	0x3d	61
108	0xc9	-55
109	0xbf	-65
110	0xf1	-15
111	0xea	-22
112	0x11	17
113	0x2a	42
114	0xf0	-16
115	0x1e	30
116	0x49	73
117	0xda	-38
118	0x0e	14
119	0x81	-127
120	0x05	5
121	0xa9	-87
122	0xa7	-89
123	0x01	1
124	0xfc	-4
125	0xf8	-8
126	0xaa	-86
127	0x3b	59
128	0xed	-19
129	0xc9	-55
130	0xf7	-9
131	0xf5	-11
132	0x01	1
133	0x20	32
134	0x3d	61
135	0xbc	-68
136	0xe6	-26
137	0x07	7
138	0xdd	-35
139	0xfe	-2
140	0x02	2
141	0x71	113
142	0x32	50
143	0xd3	-45
144	0xfe	-2
145	0x2d	45
146	0x0f	15
147	0xc3	-61
148	0xd6	-42
149	0xe7	-25
150	0xdc	-36
151	0xf2	-14
152	0x35	53
153	0xb1	-79
154	0xe2	-30
155	0x02	2
156	0xd5	-43
157	0xc4	-60
158	0xed	-19
159	0xda	-38
160	0x19	25
161	0x0f	15
162	0xe1	-31
163	0xc3	-61
164	0xf7	-9
165	0xf2	-14
166	0xe9	-23
167	0x13	19
168	0xf8	-8
169	0xf9	-7
170	0xe4	-28
171	0xea	-22
172	0x9a	-102
173	0xe2	-30
174	0x28	40
175	0xfb	-5
176	0x42	66
177	0x7f	127
178	0x56	86
179	0x91	-111
180	0x07	7
181	0xbc	-68
182	0x6b	107
183	0xbf	-65
184	0x1d	29
185	0xcb	-53
186	0xa7	-89
187	0x99	-103
188	0x0e	14
189	0xdd	-35
190	0xfc	-4
191	0x39	57
192	0xdf	-33
193	0x68	104
194	0xb0	-80
195	0x0d	13
196	0xb1	-79
197	0x3c	60
198	0x1c	28
199	0x96	-106
200	0x0b	11
201	0x4a	74
202	0x17	23
203	0xb1	-79
204	0xd5	-43
205	0xb8	-72
206	0x15	21
207	0xde	-34
208	0x99	-103
209	0x9a	-102
210	0x18	24
211	0x10	16
212	0xea	-22
213	0xfc	-4
214	0x26	38
215	0x34	52
216	0xbd	-67
217	0x43	67
218	0x5e	94
219	0x91	-111
220	0xe3	-29
221	0xdd	-35
222	0xc8	-56
223	0x7b	123
224	0xc3	-61
225	0xeb	-21
226	0xff	-1
227	0xef	-17
228	0xee	-18
229	0xaf	-81
230	0x4b	75
231	0x1b	27
232	0x51	81
233	0x32	50
234	0x09	9
235	0xee	-18
236	0x7f	127
237	0x3f	63
238	0xd0	-48
239	0x2c	44
240	0x37	55
241	0xcf	-49
242	0x1b	27
243	0x06	6
244	0x06	6
245	0x0d	13
246	0xd8	-40
247	0xa8	-88
248	0xb5	-75
249	0x29	41
250	0x16	22
251	0x2c	44
252	0x3c	60
253	0x30	48
254	0xd9	-39
255	0x5b	91

tfl.pseudo_qconst5 i1 [1, 23, 1, 64]
0	0xce	-50
1	0x81	-127
2	0x81	-127
3	0xcd	-51
4	0x68	104
5	0x7f	127
6	0x0d	13
7	0x19	25
8	0x32	50
9	0xd0	-48
10	0xf2	-14
11	0x81	-127
12	0x73	115
13	0xd9	-39
14	0x58	88
15	0xa4	-92
16	0x04	4
17	0xd5	-43
18	0xe8	-24
19	0x81	-127
20	0x85	-123
21	0x1b	27
22	0xde	-34
23	0x66	102
24	0x41	65
25	0x14	20
26	0x36	54
27	0xfb	-5
28	0xa9	-87
29	0x7f	127
30	0xff	-1
31	0x71	113
32	0x26	38
33	0xc4	-60
34	0x26	38
35	0x2b	43
36	0x13	19
37	0x7f	127
38	0x27	39
39	0x1d	29
40	0x7f	127
41	0xb8	-72
42	0x0f	15
43	0x0a	10
44	0x81	-127
45	0x7f	127
46	0xd4	-44
47	0xf6	-10
48	0x0f	15
49	0x7f	127
50	0x95	-107
51	0xd5	-43
52	0xd4	-44
53	0xce	-50
54	0x33	51
55	0xea	-22
56	0x7e	126
57	0xf4	-12
58	0x3b	59
59	0xaa	-86
60	0x7f	127
61	0x78	120
62	0x05	5
63	0xeb	-21
64	0x05	5
65	0x88	-120
66	0xc0	-64
67	0x8c	-116
68	0x56	86
69	0x63	99
70	0x4a	74
71	0x2b	43
72	0x67	103
73	0xe1	-31
74	0x02	2
75	0xac	-84
76	0x67	103
77	0xe8	-24
78	0x06	6
79	0x54	84
80	0x0a	10
81	0xe6	-26
82	0xf1	-15
83	0xac	-84
84	0xae	-82
85	0x00	0
86	0xc9	-55
87	0x52	82
88	0xff	-1
89	0xd2	-46
90	0x65	101
91	0x0e	14
92	0x0d	13
93	0x57	87
94	0xe8	-24
95	0x60	96
96	0x69	105
97	0xcd	-51
98	0x21	33
99	0x68	104
100	0x05	5
101	0x61	97
102	0x30	48
103	0x45	69
104	0x6d	109
105	0xe3	-29
106	0xcf	-49
107	0x45	69
108	0xa1	-95
109	0x57	87
110	0x1a	26
111	0x11	17
112	0x52	82
113	0x4b	75
114	0xd8	-40
115	0xea	-22
116	0xe9	-23
117	0x9b	-101
118	0x7f	127
119	0xa6	-90
120	0x7d	125
121	0xe2	-30
122	0x35	53
123	0xba	-70
124	0x53	83
125	0x38	56
126	0x10	16
127	0x1e	30
128	0x33	51
129	0xa6	-90
130	0xae	-82
131	0xb0	-80
132	0x33	51
133	0x45	69
134	0x3f	63
135	0x32	50
136	0x5d	93
137	0xde	-34
138	0xe8	-24
139	0x98	-104
140	0x28	40
141	0xe5	-27
142	0x03	3
143	0x1d	29
144	0x07	7
145	0x00	0
146	0xd8	-40
147	0xcd	-51
148	0xdd	-35
149	0xfb	-5
150	0xbb	-69
151	0x17	23
152	0xfe	-2
153	0xc6	-58
154	0x7f	127
155	0x34	52
156	0xf7	-9
157	0x45	69
158	0xf5	-11
159	0x6a	106
160	0x3f	63
161	0xc7	-57
162	0x24	36
163	0x7f	127
164	0xfb	-5
165	0x4b	75
166	0x42	66
167	0x5b	91
168	0x27	39
169	0xf0	-16
170	0xf2	-14
171	0x49	73
172	0x98	-104
173	0x45	69
174	0x14	20
175	0x26	38
176	0x46	70
177	0x2f	47
178	0xf2	-14
179	0x81	-127
180	0x12	18
181	0xc4	-60
182	0x73	115
183	0xc1	-63
184	0x48	72
185	0x01	1
186	0x46	70
187	0xf2	-14
188	0x3d	61
189	0x58	88
190	0xfc	-4
191	0x14	20
192	0x46	70
193	0xeb	-21
194	0xe8	-24
195	0x1e	30
196	0x46	70
197	0x31	49
198	0x35	53
199	0x31	49
200	0x70	112
201	0xe9	-23
202	0xb8	-72
203	0xe3	-29
204	0x28	40
205	0xfc	-4
206	0x17	23
207	0x1f	31
208	0x19	25
209	0x61	97
210	0xb9	-71
211	0x0c	12
212	0x07	7
213	0x01	1
214	0xcf	-49
215	0xfe	-2
216	0xcc	-52
217	0xc3	-61
218	0x7d	125
219	0x2f	47
220	0x37	55
221	0x47	71
222	0x90	-112
223	0x7f	127
224	0x1c	28
225	0xc5	-59
226	0x1a	26
227	0x6f	111
228	0xe3	-29
229	0x18	24
230	0x54	84
231	0x59	89
232	0xe1	-31
233	0xe2	-30
234	0xfe	-2
235	0xf5	-11
236	0xc3	-61
237	0x3f	63
238	0xff	-1
239	0x5d	93
240	0x31	49
241	0xfe	-2
242	0xe4	-28
243	0x87	-121
244	0xfe	-2
245	0xd2	-46
246	0x6c	108
247	0xe9	-23
248	0x47	71
249	0x03	3
250	0x17	23
251	0xff	-1
252	0x43	67
253	0x78	120
254	0xef	-17
255	0x18	24

tfl.pseudo_qconst7 i1 [64, 1, 1, 64]
0	0x74	116
1	0xdd	-35
2	0x16	22
3	0x2b	43
4	0xf1	-15
5	0xa5	-91
6	0xfb	-5
7	0xc3	-61
8	0x4a	74
9	0x2f	47
10	0x5d	93
11	0xd4	-44
12	0xf3	-13
13	0x01	1
14	0x33	51
15	0xf4	-12
16	0x61	97
17	0xcf	-49
18	0x7f	127
19	0xfb	-5
20	0xd6	-42
21	0xf9	-7
22	0x1e	30
23	0xd7	-41
24	0xda	-38
25	0xe6	-26
26	0xe6	-26
27	0x0d	13
28	0xe1	-31
29	0xce	-50
30	0xf0	-16
31	0xdb	-37
32	0xf7	-9
33	0xea	-22
34	0x6e	110
35	0x31	49
36	0x0e	14
37	0x58	88
38	0xc5	-59
39	0xff	-1
40	0xed	-19
41	0x18	24
42	0xff	-1
43	0x54	84
44	0xcc	-52
45	0x3e	62
46	0xed	-19
47	0x08	8
48	0x2a	42
49	0x11	17
50	0x5a	90
51	0x33	51
52	0x15	21
53	0x0a	10
54	0x1b	27
55	0x58	88
56	0xcc	-52
57	0xa9	-87
58	0x19	25
59	0xe0	-32
60	0xff	-1
61	0x12	18
62	0xc5	-59
63	0x05	5
64	0xf1	-15
65	0x29	41
66	0x92	-110
67	0x11	17
68	0x2b	43
69	0xee	-18
70	0xfc	-4
71	0xeb	-21
72	0xd5	-43
73	0x5f	95
74	0x21	33
75	0x69	105
76	0xc7	-57
77	0x30	48
78	0x92	-110
79	0xd6	-42
80	0xf2	-14
81	0xcb	-53
82	0xe2	-30
83	0xf3	-13
84	0xa7	-89
85	0xf3	-13
86	0xbe	-66
87	0x37	55
88	0xfa	-6
89	0xd0	-48
90	0xda	-38
91	0x16	22
92	0x2d	45
93	0xc7	-57
94	0xfc	-4
95	0xf5	-11
96	0xa3	-93
97	0xe1	-31
98	0xac	-84
99	0xdd	-35
100	0x81	-127
101	0x1b	27
102	0xcb	-53
103	0x47	71
104	0xc3	-61
105	0xd1	-47
106	0xfd	-3
107	0x21	33
108	0x13	19
109	0x01	1
110	0x26	38
111	0x2c	44
112	0xec	-20
113	0x31	49
114	0x2f	47
115	0xd7	-41
116	0xd4	-44
117	0x41	65
118	0xec	-20
119	0x86	-122
120	0xcd	-51
121	0xc9	-55
122	0xf3	-13
123	0xdb	-37
124	0xfa	-6
125	0xdd	-35
126	0xf2	-14
127	0x1a	26
128	0x0f	15
129	0xeb	-21
130	0x0e	14
131	0xf8	-8
132	0x18	24
133	0x0d	13
134	0xbb	-69
135	0xc5	-59
136	0xb4	-76
137	0x1a	26
138	0x28	40
139	0x62	98
140	0xe1	-31
141	0x37	55
142	0xef	-17
143	0x92	-110
144	0xcc	-52
145	0x0f	15
146	0x32	50
147	0x02	2
148	0xbe	-66
149	0xf0	-16
150	0xd9	-39
151	0xbb	-69
152	0xbb	-69
153	0xcb	-53
154	0xcf	-49
155	0x18	24
156	0x47	71
157	0x30	48
158	0x37	55
159	0x0b	11
160	0xd9	-39
161	0xe9	-23
162	0x44	68
163	0xfe	-2
164	0xa3	-93
165	0x7f	127
166	0x06	6
167	0xb9	-71
168	0xfa	-6
169	0xc1	-63
170	0x20	32
171	0x0c	12
172	0x17	23
173	0x39	57
174	0x2c	44
175	0xc2	-62
176	0xd2	-46
177	0x40	64
178	0x4d	77
179	0x4c	76
180	0x14	20
181	0x5c	92
182	0x15	21
183	0xc5	-59
184	0xd7	-41
185	0xd0	-48
186	0x1a	26
187	0xb4	-76
188	0xa5	-91
189	0x02	2
190	0x28	40
191	0xe0	-32
192	0xb1	-79
193	0x1c	28
194	0x25	37
195	0x0f	15
196	0xe8	-24
197	0x32	50
198	0x05	5
199	0x3b	59
200	0xe0	-32
201	0xea	-22
202	0xde	-34
203	0x18	24
204	0x1d	29
205	0x3f	63
206	0xd3	-45
207	0x66	102
208	0x75	117
209	0x30	48
210	0xa5	-91
211	0xfa	-6
212	0x01	1
213	0x04	4
214	0xfa	-6
215	0x08	8
216	0xfc	-4
217	0x4c	76
218	0xb0	-80
219	0x03	3
220	0xab	-85
221	0x08	8
222	0xd7	-41
223	0x91	-111
224	0x18	24
225	0xf8	-8
226	0xf0	-16
227	0xc3	-61
228	0xe9	-23
229	0xea	-22
230	0xba	-70
231	0x1a	26
232	0xd9	-39
233	0x2d	45
234	0x25	37
235	0x9d	-99
236	0xc0	-64
237	0x10	16
238	0x18	24
239	0xb5	-75
240	0x38	56
241	0xcc	-52
242	0x18	24
243	0x10	16
244	0x2b	43
245	0xd9	-39
246	0x8b	-117
247	0x7f	127
248	0x1c	28
249	0x47	71
250	0x2d	45
251	0xd3	-45
252	0x30	48
253	0xbf	-65
254	0xa3	-93
255	0xa9	-87

tfl.pseudo_qconst9 i1 [1, 15, 1, 32]
0	0x3a	58
1	0xe7	-25
2	0x8e	-114
3	0x2f	47
4	0x41	65
5	0x66	102
6	0xe7	-25
7	0xf3	-13
8	0x9e	-98
9	0x0e	14
10	0x7f	127
11	0x7f	127
12	0x7f	127
13	0xaf	-81
14	0x81	-127
15	0xaf	-81
16	0x5e	94
17	0x84	-124
18	0x81	-127
19	0x81	-127
20	0x4c	76
21	0x2f	47
22	0xd2	-46
23	0x9d	-99
24	0x5f	95
25	0x81	-127
26	0xf0	-16
27	0xd2	-46
28	0x55	85
29	0x4f	79
30	0x47	71
31	0xf9	-7
32	0x32	50
33	0x08	8
34	0xd5	-43
35	0x2a	42
36	0x12	18
37	0x7f	127
38	0xba	-70
39	0x06	6
40	0x92	-110
41	0x02	2
42	0x68	104
43	0xe7	-25
44	0x63	99
45	0x94	-108
46	0xa0	-96
47	0xf8	-8
48	0x7f	127
49	0xb7	-73
50	0xa8	-88
51	0xd3	-45
52	0x71	113
53	0x1a	26
54	0x54	84
55	0x9c	-100
56	0x7f	127
57	0xb0	-80
58	0xe0	-32
59	0xc1	-63
60	0x0e	14
61	0x3c	60
62	0xff	-1
63	0x14	20
64	0xdd	-35
65	0x69	105
66	0x25	37
67	0x0e	14
68	0xf3	-13
69	0x5e	94
70	0x8c	-116
71	0xce	-50
72	0x8a	-118
73	0xd8	-40
74	0x6b	107
75	0xa9	-87
76	0x50	80
77	0x01	1
78	0xb2	-78
79	0x17	23
80	0x59	89
81	0xf0	-16
82	0xce	-50
83	0xcb	-53
84	0x7f	127
85	0xfe	-2
86	0x41	65
87	0xe5	-27
88	0x56	86
89	0xc3	-61
90	0x56	86
91	0x95	-107
92	0x2c	44
93	0xf7	-9
94	0x24	36
95	0x1b	27
96	0x05	5
97	0x4b	75
98	0x27	39
99	0x20	32
100	0xcf	-49
101	0x5c	92
102	0xad	-83
103	0xfe	-2
104	0xd7	-41
105	0xbb	-69
106	0x53	83
107	0xc2	-62
108	0x3f	63
109	0x51	81
110	0xbe	-66
111	0x7f	127
112	0x1c	28
113	0x08	8
114	0xfb	-5
115	0xd9	-39
116	0x74	116
117	0x04	4
118	0x2e	46
119	0xe0	-32
120	0x44	68
121	0xbd	-67
122	0x4b	75
123	0x01	1
124	0xed	-19
125	0xde	-34
126	0xd3	-45
127	0x42	66
128	0x15	21
129	0x48	72
130	0xe5	-27
131	0xdd	-35
132	0x0e	14
133	0x21	33
134	0x9f	-97
135	0x8e	-114
136	0xa4	-92
137	0x05	5
138	0x2e	46
139	0xe1	-31
140	0xc3	-61
141	0x5f	95
142	0xd2	-46
143	0x43	67
144	0x3d	61
145	0xdb	-37
146	0x04	4
147	0xeb	-21
148	0x59	89
149	0x06	6
150	0x2c	44
151	0xe6	-26
152	0x06	6
153	0x09	9
154	0x7f	127
155	0xf8	-8
156	0x87	-121
157	0x02	2
158	0xf0	-16
159	0x1b	27
160	0xf1	-15
161	0xf8	-8
162	0x00	0
163	0xe8	-24
164	0x0d	13
165	0x32	50
166	0xb9	-71
167	0x25	37
168	0xdf	-33
169	0x50	80
170	0x38	56
171	0xf6	-10
172	0x83	-125
173	0x54	84
174	0xfe	-2
175	0xf8	-8
176	0x0a	10
177	0x38	56
178	0xf8	-8
179	0x09	9
180	0x41	65
181	0xf0	-16
182	0x09	9
183	0xbf	-65
184	0x29	41
185	0xef	-17
186	0x46	70
187	0x5a	90
188	0x81	-127
189	0xd2	-46
190	0x81	-127
191	0xd6	-42
192	0xe3	-29
193	0x00	0
194	0xf7	-9
195	0xac	-84
196	0xbe	-66
197	0xf1	-15
198	0xf1	-15
199	0xfe	-2
200	0x0a	10
201	0x0a	10
202	0xe9	-23
203	0xaf	-81
204	0xd6	-42
205	0x41	65
206	0xf1	-15
207	0x12	18
208	0xd5	-43
209	0x5f	95
210	0xe9	-23
211	0x33	51
212	0x4e	78
213	0xcb	-53
214	0x3e	62
215	0xdd	-35
216	0xd7	-41
217	0x0f	15
218	0x09	9
219	0x6b	107
220	0x8e	-114
221	0xc8	-56
222	0x9c	-100
223	0xda	-38
224	0xc7	-57
225	0xcf	-49
226	0xfc	-4
227	0xf7	-9
228	0xc1	-63
229	0x09	9
230	0xe0	-32
231	0x2c	44
232	0xfb	-5
233	0xc4	-60
234	0xf5	-11
235	0x14	20
236	0xa2	-94
237	0xe2	-30
238	0xf5	-11
239	0x2d	45
240	0x8f	-113
241	0x70	112
242	0x1f	31
243	0x34	52
244	0x2f	47
245	0xe8	-24
246	0x3d	61
247	0xce	-50
248	0xf5	-11
249	0x31	49
250	0xed	-19
251	0x31	49
252	0xb4	-76
253	0xd0	-48
254	0xf6	-10
255	0xd3	-45

tfl.pseudo_qconst11 i1 [1, 9, 1, 32]
0	0x70	112
1	0x79	121
2	0xbf	-65
3	0xf9	-7
4	0x9e	-98
5	0xdc	-36
6	0xd6	-42
7	0x81	-127
8	0x48	72
9	0xff	-1
10	0x2b	43
11	0x2d	45
12	0x11	17
13	0x26	38
14	0xf7	-9
15	0xc2	-62
16	0xbe	-66
17	0xd8	-40
18	0xc4	-60
19	0x81	-127
20	0x0f	15
21	0x02	2
22	0xcb	-53
23	0x0a	10
24	0x64	100
25	0xdc	-36
26	0x92	-110
27	0x7f	127
28	0x4c	76
29	0xbf	-65
30	0xac	-84
31	0xee	-18
32	0x2f	47
33	0x7f	127
34	0x8d	-115
35	0xf1	-15
36	0x51	81
37	0xe5	-27
38	0xf4	-12
39	0x8b	-117
40	0x61	97
41	0xac	-84
42	0xc7	-57
43	0xe2	-30
44	0x03	3
45	0x0f	15
46	0x18	24
47	0x50	80
48	0x4a	74
49	0xfb	-5
50	0xf1	-15
51	0xb5	-75
52	0x7f	127
53	0xde	-34
54	0xbf	-65
55	0xd8	-40
56	0x2b	43
57	0xca	-54
58	0xac	-84
59	0x50	80
60	0x3c	60
61	0x81	-127
62	0xac	-84
63	0x18	24
64	0x0b	11
65	0x5b	91
66	0xb1	-79
67	0xcf	-49
68	0x5f	95
69	0x42	66
70	0x0e	14
71	0xb4	-76
72	0x38	56
73	0x90	-112
74	0x81	-127
75	0x23	35
76	0x42	66
77	0xbc	-68
78	0x15	21
79	0x65	101
80	0x76	118
81	0xd2	-46
82	0xb2	-78
83	0xcd	-51
84	0x6f	111
85	0xdb	-37
86	0x0a	10
87	0x11	17
88	0x30	48
89	0x30	48
90	0x91	-111
91	0x19	25
92	0x1b	27
93	0x10	16
94	0xf5	-11
95	0x28	40
96	0x15	21
97	0x67	103
98	0x90	-112
99	0x0c	12
100	0x7f	127
101	0x43	67
102	0xe7	-25
103	0xfc	-4
104	0x8d	-115
105	0x13	19
106	0xb4	-76
107	0x2a	42
108	0x03	3
109	0xed	-19
110	0xd5	-43
111	0x7f	127
112	0xe6	-26
113	0x08	8
114	0x81	-127
115	0x9f	-97
116	0x23	35
117	0xb4	-76
118	0x1e	30
119	0x1a	26
120	0x44	68
121	0x7f	127
122	0x26	38
123	0x19	25
124	0x0e	14
125	0x00	0
126	0x0f	15
127	0x30	48
128	0x14	20
129	0x26	38
130	0xab	-85
131	0x29	41
132	0x17	23
133	0x28	40
134	0xc3	-61
135	0x20	32
136	0x81	-127
137	0xe2	-30
138	0xe8	-24
139	0x04	4
140	0x7f	127
141	0x3b	59
142	0xe9	-23
143	0x04	4
144	0xbe	-66
145	0xdd	-35
146	0xe7	-25
147	0xcd	-51
148	0x81	-127
149	0x1a	26
150	0xa8	-88
151	0x18	24
152	0x1c	28
153	0x19	25
154	0x20	32
155	0xd0	-48
156	0xed	-19
157	0x3c	60
158	0xc6	-58
159	0xf4	-12
160	0x28	40
161	0x23	35
162	0x81	-127
163	0x7f	127
164	0xc5	-59
165	0x17	23
166	0xc6	-58
167	0xe7	-25
168	0x8a	-118
169	0x1c	28
170	0x32	50
171	0xef	-17
172	0x7c	124
173	0xd8	-40
174	0xe6	-26
175	0x4a	74
176	0xc1	-63
177	0xec	-20
178	0x07	7
179	0xc2	-62
180	0x87	-121
181	0xfc	-4
182	0x81	-127
183	0x36	54
184	0x7f	127
185	0x18	24
186	0x41	65
187	0xcc	-52
188	0xde	-34
189	0x2b	43
190	0xe0	-32
191	0x02	2
192	0x5a	90
193	0x0b	11
194	0xc2	-62
195	0x1a	26
196	0xc9	-55
197	0x7f	127
198	0xb2	-78
199	0xcb	-53
200	0x90	-112
201	0x0e	14
202	0x5b	91
203	0x9c	-100
204	0x6a	106
205	0xac	-84
206	0xe0	-32
207	0x0d	13
208	0x46	70
209	0x40	64
210	0xcb	-53
211	0xbc	-68
212	0xe4	-28
213	0xe2	-30
214	0x9d	-99
215	0x54	84
216	0x36	54
217	0x19	25
218	0x60	96
219	0xa4	-92
220	0xd9	-39
221	0x46	70
222	0xb9	-71
223	0xe8	-24
224	0x30	48
225	0xbb	-69
226	0x9d	-99
227	0x2e	46
228	0xce	-50
229	0x7b	123
230	0x22	34
231	0xce	-50
232	0x5d	93
233	0x79	121
234	0xdc	-36
235	0x81	-127
236	0x5d	93
237	0x9f	-97
238	0xa6	-90
239	0x6a	106
240	0x7f	127
241	0x58	88
242	0xef	-17
243	0xce	-50
244	0xee	-18
245	0x92	-110
246	0x9f	-97
247	0x55	85
248	0x3b	59
249	0x48	72
250	0x05	5
251	0xea	-22
252	0x98	-104
253	0xf5	-11
254	0x81	-127
255	0x31	49

tfl.pseudo_qconst13 i1 [64, 1, 1, 64]
0	0xf2	-14
1	0x24	36
2	0x0f	15
3	0x02	2
4	0xf1	-15
5	0xd0	-48
6	0x1a	26
7	0xe0	-32
8	0x09	9
9	0xc3	-61
10	0x4d	77
11	0xee	-18
12	0xeb	-21
13	0xfb	-5
14	0x21	33
15	0x44	68
16	0x10	16
17	0xe3	-29
18	0x13	19
19	0xfd	-3
20	0xf0	-16
21	0xfb	-5
22	0x22	34
23	0x21	33
24	0x00	0
25	0xe7	-25
26	0x41	65
27	0xc3	-61
28	0xee	-18
29	0x24	36
30	0xfe	-2
31	0xe6	-26
32	0x04	4
33	0x7f	127
34	0x1e	30
35	0x06	6
36	0xd0	-48
37	0x3d	61
38	0x39	57
39	0xe2	-30
40	0xc5	-59
41	0xd6	-42
42	0x09	9
43	0x12	18
44	0x11	17
45	0xf2	-14
46	0x00	0
47	0xcb	-53
48	0xdf	-33
49	0x34	52
50	0x00	0
51	0xc0	-64
52	0xb4	-76
53	0x08	8
54	0x77	119
55	0x43	67
56	0xf5	-11
57	0x35	53
58	0x15	21
59	0xd6	-42
60	0x06	6
61	0xcb	-53
62	0xe6	-26
63	0xdc	-36
64	0xc1	-63
65	0x7e	126
66	0x19	25
67	0x68	104
68	0x3e	62
69	0x64	100
70	0x30	48
71	0xcf	-49
72	0xc3	-61
73	0xd7	-41
74	0xc6	-58
75	0x2a	42
76	0x1e	30
77	0xbf	-65
78	0xed	-19
79	0xff	-1
80	0x37	55
81	0x08	8
82	0xb6	-74
83	0xb3	-77
84	0xf6	-10
85	0xfa	-6
86	0xbe	-66
87	0x44	68
88	0xe9	-23
89	0x0d	13
90	0xda	-38
91	0xc9	-55
92	0x14	20
93	0xab	-85
94	0x02	2
95	0x42	66
96	0x51	81
97	0xeb	-21
98	0xe5	-27
99	0xd0	-48
100	0xe7	-25
101	0x0a	10
102	0x0e	14
103	0xc7	-57
104	0x31	49
105	0xba	-70
106	0xa8	-88
107	0xd1	-47
108	0x1f	31
109	0x22	34
110	0x96	-106
111	0x2d	45
112	0xe3	-29
113	0x9f	-97
114	0xea	-22
115	0xb6	-74
116	0x01	1
117	0xa2	-94
118	0xe8	-24
119	0xb9	-71
120	0xe0	-32
121	0x81	-127
122	0xe1	-31
123	0x41	65
124	0xd4	-44
125	0x46	70
126	0xc8	-56
127	0x08	8
128	0x3c	60
129	0xeb	-21
130	0x3b	59
131	0xfe	-2
132	0x09	9
133	0x0d	13
134	0x14	20
135	0x5a	90
136	0x2b	43
137	0x85	-123
138	0xc8	-56
139	0xd2	-46
140	0x16	22
141	0xee	-18
142	0x31	49
143	0x45	69
144	0xae	-82
145	0xad	-83
146	0x14	20
147	0x6b	107
148	0xc0	-64
149	0x41	65
150	0xfe	-2
151	0x83	-125
152	0xd5	-43
153	0x2b	43
154	0x12	18
155	0xd7	-41
156	0x2e	46
157	0x21	33
158	0xc4	-60
159	0x16	22
160	0xce	-50
161	0xcd	-51
162	0xca	-54
163	0xc2	-62
164	0x16	22
165	0xb9	-71
166	0x8f	-113
167	0xed	-19
168	0x53	83
169	0x14	20
170	0x00	0
171	0x72	114
172	0x91	-111
173	0x98	-104
174	0x1d	29
175	0x5f	95
176	0x76	118
177	0x37	55
178	0xf6	-10
179	0xae	-82
180	0x28	40
181	0x81	-127
182	0x10	16
183	0x50	80
184	0xb2	-78
185	0x15	21
186	0xe5	-27
187	0xf3	-13
188	0x42	66
189	0x26	38
190	0x39	57
191	0xe5	-27
192	0xdf	-33
193	0x9e	-98
194	0xad	-83
195	0x39	57
196	0x8f	-113
197	0xdf	-33
198	0x1b	27
199	0x27	39
200	0x41	65
201	0x45	69
202	0x59	89
203	0xfc	-4
204	0x01	1
205	0x30	48
206	0xcf	-49
207	0x03	3
208	0xad	-83
209	0x65	101
210	0x3a	58
211	0x2d	45
212	0xfe	-2
213	0xf9	-7
214	0x06	6
215	0xd7	-41
216	0x81	-127
217	0x03	3
218	0x04	4
219	0xe8	-24
220	0xe4	-28
221	0x0e	14
222	0x05	5
223	0x45	69
224	0x42	66
225	0xad	-83
226	0x0f	15
227	0x3e	62
228	0xfd	-3
229	0x00	0
230	0xe0	-32
231	0x47	71
232	0x19	25
233	0x14	20
234	0x39	57
235	0xd0	-48
236	0xe7	-25
237	0x23	35
238	0xf6	-10
239	0xdb	-37
240	0x53	83
241	0xec	-20
242	0xc7	-57
243	0xd4	-44
244	0x27	39
245	0xfb	-5
246	0x28	40
247	0x27	39
248	0x17	23
249	0x18	24
250	0x42	66
251	0x49	73
252	0xf5	-11
253	0x01	1
254	0xdb	-37
255	0xeb	-21

tfl.pseudo_qconst15 i1 [1, 11, 1, 32]
0	0x1a	26
1	0xe1	-31
2	0x45	69
3	0x81	-127
4	0xae	-82
5	0xfd	-3
6	0xa4	-92
7	0x81	-127
8	0xf3	-13
9	0xcb	-53
10	0xce	-50
11	0xef	-17
12	0x18	24
13	0xfd	-3
14	0x09	9
15	0x63	99
16	0xb6	-74
17	0x81	-127
18	0x03	3
19	0x39	57
20	0x99	-103
21	0xc5	-59
22	0xd0	-48
23	0x7f	127
24	0x62	98
25	0x9a	-102
26	0x90	-112
27	0xf0	-16
28	0xa9	-87
29	0xd3	-45
30	0xe3	-29
31	0x33	51
32	0xc0	-64
33	0x9a	-102
34	0xd5	-43
35	0xdb	-37
36	0x81	-127
37	0xee	-18
38	0xbd	-67
39	0x97	-105
40	0xd8	-40
41	0xd5	-43
42	0x31	49
43	0xf2	-14
44	0x2b	43
45	0x81	-127
46	0x6d	109
47	0x01	1
48	0x92	-110
49	0xc9	-55
50	0xe7	-25
51	0xf4	-12
52	0x89	-119
53	0x12	18
54	0x81	-127
55	0x16	22
56	0x0e	14
57	0xa0	-96
58	0x07	7
59	0xec	-20
60	0x81	-127
61	0x81	-127
62	0x8f	-113
63	0x76	118
64	0xbc	-68
65	0x46	70
66	0xa6	-90
67	0xc3	-61
68	0xc6	-58
69	0x32	50
70	0x05	5
71	0xb8	-72
72	0x81	-127
73	0xde	-34
74	0x33	51
75	0x16	22
76	0x7f	127
77	0xd9	-39
78	0x5a	90
79	0x09	9
80	0x81	-127
81	0xa7	-89
82	0xa3	-93
83	0xb8	-72
84	0xea	-22
85	0x19	25
86	0xa3	-93
87	0xc0	-64
88	0xa0	-96
89	0x81	-127
90	0x24	36
91	0xc9	-55
92	0xf4	-12
93	0xf4	-12
94	0x8f	-113
95	0x21	33
96	0x22	34
97	0x7f	127
98	0xc2	-62
99	0x21	33
100	0x11	17
101	0x57	87
102	0x7c	124
103	0x20	32
104	0xc6	-58
105	0xd6	-42
106	0xe2	-30
107	0x88	-120
108	0x7c	124
109	0x41	65
110	0x81	-127
111	0x0e	14
112	0xb4	-76
113	0xd0	-48
114	0xc7	-57
115	0x3e	62
116	0x46	70
117	0x1f	31
118	0xf4	-12
119	0xc4	-60
120	0xfa	-6
121	0xba	-70
122	0xfd	-3
123	0xed	-19
124	0x0e	14
125	0xe2	-30
126	0x40	64
127	0x02	2
128	0x62	98
129	0x04	4
130	0xc6	-58
131	0x56	86
132	0x3b	59
133	0x7f	127
134	0x7f	127
135	0x4e	78
136	0xfe	-2
137	0xe5	-27
138	0xad	-83
139	0xa4	-92
140	0x49	73
141	0x24	36
142	0x91	-111
143	0x02	2
144	0xe1	-31
145	0xf2	-14
146	0x12	18
147	0x03	3
148	0x2c	44
149	0x01	1
150	0x0e	14
151	0x13	19
152	0xde	-34
153	0xb3	-77
154	0x26	38
155	0xe4	-28
156	0xf6	-10
157	0x31	49
158	0x7e	126
159	0x78	120
160	0x55	85
161	0x34	52
162	0x7f	127
163	0x35	53
164	0x3a	58
165	0x67	103
166	0x2e	46
167	0x18	24
168	0x03	3
169	0x1c	28
170	0x94	-108
171	0xd7	-41
172	0x51	81
173	0xc1	-63
174	0x38	56
175	0x81	-127
176	0x34	52
177	0xbb	-69
178	0x8f	-113
179	0x48	72
180	0xff	-1
181	0x09	9
182	0x29	41
183	0x50	80
184	0xb0	-80
185	0xa9	-87
186	0x03	3
187	0x25	37
188	0xbb	-69
189	0xcb	-53
190	0x3c	60
191	0x81	-127
192	0x7f	127
193	0x58	88
194	0x2e	46
195	0x29	41
196	0x4c	76
197	0xb8	-72
198	0x97	-105
199	0x14	20
200	0xfb	-5
201	0x22	34
202	0x81	-127
203	0x1b	27
204	0xe2	-30
205	0xaa	-86
206	0x4e	78
207	0x92	-110
208	0x19	25
209	0xe2	-30
210	0x40	64
211	0x2b	43
212	0x63	99
213	0x1a	26
214	0x2e	46
215	0xcc	-52
216	0xc8	-56
217	0x10	16
218	0x97	-105
219	0x30	48
220	0xc0	-64
221	0xb5	-75
222	0x05	5
223	0xbf	-65
224	0x56	86
225	0x72	114
226	0x32	50
227	0xcd	-51
228	0x49	73
229	0xae	-82
230	0xb5	-75
231	0x32	50
232	0xd5	-43
233	0x0d	13
234	0xc4	-60
235	0x43	67
236	0xc8	-56
237	0xd1	-47
238	0xa0	-96
239	0x63	99
240	0xc4	-60
241	0x5c	92
242	0x6e	110
243	0x78	120
244	0x65	101
245	0x19	25
246	0x75	117
247	0xd7	-41
248	0x48	72
249	0x16	22
250	0xc8	-56
251	0x34	52
252	0x0f	15
253	0xc6	-58
254	0xf5	-11
255	0xf6	-10

tfl.pseudo_qconst17 i1 [1, 7, 1, 32]
0	0x35	53
1	0xb9	-71
2	0x5d	93
3	0x06	6
4	0xee	-18
5	0xe1	-31
6	0x0b	11
7	0x1d	29
8	0x75	117
9	0xcd	-51
10	0x2f	47
11	0x81	-127
12	0x17	23
13	0xed	-19
14	0x71	113
15	0x0c	12
16	0x90	-112
17	0x61	97
18	0xe2	-30
19	0x91	-111
20	0x7f	127
21	0x3b	59
22	0x04	4
23	0x08	8
24	0xf7	-9
25	0x1c	28
26	0xd5	-43
27	0xbd	-67
28	0x03	3
29	0xcb	-53
30	0x58	88
31	0x8c	-116
32	0xe8	-24
33	0x5a	90
34	0xb7	-73
35	0x42	66
36	0x7f	127
37	0xa4	-92
38	0xb3	-77
39	0xcb	-53
40	0x74	116
41	0xc8	-56
42	0x60	96
43	0xb8	-72
44	0x7f	127
45	0x5f	95
46	0x78	120
47	0x33	51
48	0x08	8
49	0x35	53
50	0xe0	-32
51	0xc6	-58
52	0x5e	94
53	0x47	71
54	0x81	-127
55	0x10	16
56	0x7f	127
57	0xdc	-36
58	0xe1	-31
59	0x17	23
60	0x66	102
61	0xba	-70
62	0xc0	-64
63	0x81	-127
64	0x99	-103
65	0x7f	127
66	0x81	-127
67	0x67	103
68	0x70	112
69	0x81	-127
70	0x88	-120
71	0xdf	-33
72	0x0b	11
73	0x3c	60
74	0x2c	44
75	0xbb	-69
76	0xa9	-87
77	0x7d	125
78	0x7f	127
79	0x7f	127
80	0x26	38
81	0xed	-19
82	0x7a	122
83	0xfe	-2
84	0x2d	45
85	0x17	23
86	0x19	25
87	0x11	17
88	0x51	81
89	0x7f	127
90	0x67	103
91	0x53	83
92	0x7f	127
93	0x02	2
94	0x81	-127
95	0xbb	-69
96	0xe3	-29
97	0xf0	-16
98	0x07	7
99	0xea	-22
100	0xeb	-21
101	0xb8	-72
102	0x37	55
103	0xe4	-28
104	0x81	-127
105	0x7f	127
106	0xc0	-64
107	0x8c	-116
108	0x18	24
109	0x4f	79
110	0xc9	-55
111	0x2c	44
112	0xfb	-5
113	0x97	-105
114	0x7f	127
115	0x1f	31
116	0xe0	-32
117	0x8b	-117
118	0x4f	79
119	0x3b	59
120	0x9e	-98
121	0xc8	-56
122	0x7f	127
123	0x7f	127
124	0x34	52
125	0xc8	-56
126	0xf1	-15
127	0xb6	-74
128	0xda	-38
129	0xc3	-61
130	0xf3	-13
131	0x81	-127
132	0xdf	-33
133	0xc5	-59
134	0x7f	127
135	0x73	115
136	0x89	-119
137	0x75	117
138	0x81	-127
139	0xee	-18
140	0x3c	60
141	0x42	66
142	0xeb	-21
143	0x11	17
144	0x07	7
145	0x81	-127
146	0xef	-17
147	0xeb	-21
148	0x49	73
149	0xd3	-45
150	0x32	50
151	0x3e	62
152	0x97	-105
153	0x9f	-97
154	0x4b	75
155	0x3b	59
156	0x42	66
157	0x81	-127
158	0x10	16
159	0xd2	-46
160	0xed	-19
161	0xab	-85
162	0x7c	124
163	0xeb	-21
164	0xcb	-53
165	0xef	-17
166	0x57	87
167	0x74	116
168	0xe2	-30
169	0x0e	14
170	0xac	-84
171	0xbf	-65
172	0xe1	-31
173	0x30	48
174	0x94	-108
175	0x88	-120
176	0xef	-17
177	0xe8	-24
178	0x06	6
179	0x90	-112
180	0x09	9
181	0x91	-111
182	0xc6	-58
183	0x0a	10
184	0xaa	-86
185	0x94	-108
186	0x96	-106
187	0xfa	-6
188	0x1a	26
189	0x99	-103
190	0xf1	-15
191	0xf3	-13
192	0x81	-127
193	0x84	-124
194	0x08	8
195	0x16	22
196	0x8f	-113
197	0x48	72
198	0x38	56
199	0x7f	127
200	0x04	4
201	0xd2	-46
202	0x20	32
203	0xd5	-43
204	0x95	-107
205	0x81	-127
206	0xd5	-43
207	0xe1	-31
208	0x7f	127
209	0x06	6
210	0xad	-83
211	0x81	-127
212	0x4e	78
213	0x7f	127
214	0x8a	-118
215	0x7f	127
216	0x5f	95
217	0xc3	-61
218	0x87	-121
219	0x2a	42
220	0x2c	44
221	0xe6	-26
222	0x7a	122
223	0x00	0

tfl.pseudo_qconst19 i1 [64, 1, 1, 32]
0	0x0f	15
1	0x1e	30
2	0x1b	27
3	0x18	24
4	0x2a	42
5	0x11	17
6	0xc2	-62
7	0xf8	-8
8	0xbf	-65
9	0x03	3
10	0x59	89
11	0x28	40
12	0xf3	-13
13	0x08	8
14	0xfb	-5
15	0x00	0
16	0x11	17
17	0xde	-34
18	0x7f	127
19	0xf3	-13
20	0xf6	-10
21	0xbe	-66
22	0x23	35
23	0xe8	-24
24	0xce	-50
25	0xe9	-23
26	0x3b	59
27	0x07	7
28	0x0e	14
29	0x8b	-117
30	0xc8	-56
31	0xd2	-46
32	0xfa	-6
33	0x2d	45
34	0xee	-18
35	0x1e	30
36	0xef	-17
37	0xc9	-55
38	0x21	33
39	0xfc	-4
40	0xe0	-32
41	0x42	66
42	0x05	5
43	0xaa	-86
44	0x22	34
45	0x5f	95
46	0xf4	-12
47	0xd4	-44
48	0xfb	-5
49	0x04	4
50	0x7f	127
51	0xdf	-33
52	0x05	5
53	0xe4	-28
54	0x12	18
55	0x23	35
56	0xf9	-7
57	0x37	55
58	0x5c	92
59	0x0f	15
60	0xd1	-47
61	0xd3	-45
62	0x6b	107
63	0x0b	11
64	0xc0	-64
65	0x04	4
66	0x2d	45
67	0x00	0
68	0xbb	-69
69	0x06	6
70	0xb6	-74
71	0x0f	15
72	0x09	9
73	0x90	-112
74	0xcf	-49
75	0xc5	-59
76	0x81	-127
77	0xf2	-14
78	0x41	65
79	0x1f	31
80	0x31	49
81	0xe2	-30
82	0x04	4
83	0x95	-107
84	0xce	-50
85	0x39	57
86	0x01	1
87	0xdb	-37
88	0xed	-19
89	0x45	69
90	0xe1	-31
91	0xe9	-23
92	0xe4	-28
93	0xef	-17
94	0xf0	-16
95	0x10	16
96	0xea	-22
97	0xd4	-44
98	0x1e	30
99	0xec	-20
100	0xfa	-6
101	0xfd	-3
102	0xbf	-65
103	0x7f	127
104	0xe5	-27
105	0xe2	-30
106	0x63	99
107	0x13	19
108	0xde	-34
109	0x0d	13
110	0xf5	-11
111	0xfe	-2
112	0xf6	-10
113	0x42	66
114	0x57	87
115	0x41	65
116	0xe5	-27
117	0xec	-20
118	0x52	82
119	0x0e	14
120	0xf8	-8
121	0x0e	14
122	0x9b	-101
123	0xa7	-89
124	0xba	-70
125	0xa8	-88
126	0x19	25
127	0x38	56
128	0x25	37
129	0x3b	59
130	0xdb	-37
131	0x47	71
132	0x16	22
133	0xd4	-44
134	0x2b	43
135	0xf1	-15
136	0x20	32
137	0x0c	12
138	0xeb	-21
139	0xe2	-30
140	0x30	48
141	0x24	36
142	0x0a	10
143	0xea	-22
144	0x30	48
145	0xe8	-24
146	0xf0	-16
147	0xdb	-37
148	0x06	6
149	0x04	4
150	0x49	73
151	0x25	37
152	0xc8	-56
153	0xdd	-35
154	0x6a	106
155	0x4c	76
156	0x7f	127
157	0xe4	-28
158	0x08	8
159	0x2b	43
160	0xf5	-11
161	0xf8	-8
162	0x7f	127
163	0x63	99
164	0x1f	31
165	0x19	25
166	0x1e	30
167	0xfa	-6
168	0xfe	-2
169	0x45	69
170	0x3f	63
171	0x0d	13
172	0xa8	-88
173	0x11	17
174	0xea	-22
175	0xc5	-59
176	0x2e	46
177	0x12	18
178	0xa6	-90
179	0xe5	-27
180	0x34	52
181	0x06	6
182	0xc6	-58
183	0x34	52
184	0xef	-17
185	0x96	-106
186	0xfe	-2
187	0x44	68
188	0x46	70
189	0x0b	11
190	0xe2	-30
191	0x22	34
192	0x25	37
193	0x19	25
194	0x19	25
195	0x16	22
196	0x04	4
197	0x0b	11
198	0xf5	-11
199	0x0e	14
200	0x28	40
201	0x34	52
202	0x63	99
203	0x28	40
204	0xdf	-33
205	0x07	7
206	0x0f	15
207	0xe7	-25
208	0x15	21
209	0xce	-50
210	0x28	40
211	0xeb	-21
212	0xef	-17
213	0xb7	-73
214	0x15	21
215	0xc7	-57
216	0xfe	-2
217	0x05	5
218	0x7f	127
219	0x33	51
220	0x2a	42
221	0x0d	13
222	0xfa	-6
223	0x31	49
224	0xb2	-78
225	0xdd	-35
226	0xe2	-30
227	0xfc	-4
228	0x03	3
229	0x2e	46
230	0x3d	61
231	0x09	9
232	0xdc	-36
233	0x0b	11
234	0xd9	-39
235	0xe2	-30
236	0xdc	-36
237	0x0a	10
238	0x44	68
239	0xda	-38
240	0xea	-22
241	0x59	89
242	0x3e	62
243	0x3b	59
244	0xfe	-2
245	0xec	-20
246	0x40	64
247	0x05	5
248	0x3b	59
249	0x7f	127
250	0xd6	-42
251	0xf9	-7
252	0xd5	-43
253	0xd4	-44
254	0x21	33
255	0x0d	13

tfl.pseudo_qconst21 i1 [1, 5, 1, 32]
0	0x9f	-97
1	0x39	57
2	0x48	72
3	0x41	65
4	0x81	-127
5	0xc9	-55
6	0x21	33
7	0xf8	-8
8	0x7f	127
9	0x0c	12
10	0x52	82
11	0x81	-127
12	0x2e	46
13	0x7b	123
14	0x15	21
15	0x91	-111
16	0x57	87
17	0x6e	110
18	0x16	22
19	0xdc	-36
20	0x56	86
21	0xd9	-39
22	0x86	-122
23	0x27	39
24	0xa9	-87
25	0x0f	15
26	0xb6	-74
27	0x54	84
28	0xb5	-75
29	0x53	83
30	0x54	84
31	0x0f	15
32	0x81	-127
33	0xa0	-96
34	0xd9	-39
35	0xa1	-95
36	0x4b	75
37	0xd0	-48
38	0x8f	-113
39	0xb5	-75
40	0x44	68
41	0xa7	-89
42	0x2c	44
43	0xd8	-40
44	0x7f	127
45	0x81	-127
46	0x81	-127
47	0x45	69
48	0xaa	-86
49	0x81	-127
50	0xc9	-55
51	0x52	82
52	0xcd	-51
53	0xe7	-25
54	0x81	-127
55	0xef	-17
56	0x1d	29
57	0xc2	-62
58	0x7f	127
59	0xb6	-74
60	0x55	85
61	0x5c	92
62	0xd7	-41
63	0xfa	-6
64	0x16	22
65	0x7f	127
66	0x9c	-100
67	0x95	-107
68	0x31	49
69	0xb3	-77
70	0x36	54
71	0x7f	127
72	0x6a	106
73	0x81	-127
74	0xb7	-73
75	0xf1	-15
76	0x92	-110
77	0x9f	-97
78	0x13	19
79	0x4f	79
80	0x81	-127
81	0x06	6
82	0xc2	-62
83	0x9f	-97
84	0x42	66
85	0x81	-127
86	0xc7	-57
87	0xf0	-16
88	0xe6	-26
89	0x2f	47
90	0x73	115
91	0x3d	61
92	0x81	-127
93	0xea	-22
94	0xa7	-89
95	0x81	-127
96	0xf4	-12
97	0x75	117
98	0x09	9
99	0xc9	-55
100	0x48	72
101	0x4e	78
102	0x69	105
103	0xba	-70
104	0xc8	-56
105	0xc6	-58
106	0xc8	-56
107	0x26	38
108	0xa4	-92
109	0x5e	94
110	0x61	97
111	0x57	87
112	0xca	-54
113	0x3f	63
114	0x81	-127
115	0xe4	-28
116	0x7f	127
117	0xa7	-89
118	0x0f	15
119	0xda	-38
120	0x02	2
121	0x7f	127
122	0xd1	-47
123	0x7f	127
124	0x9c	-100
125	0x81	-127
126	0x81	-127
127	0x27	39
128	0x3a	58
129	0xb9	-71
130	0x7f	127
131	0x81	-127
132	0x19	25
133	0x7f	127
134	0x7f	127
135	0xbe	-66
136	0xc6	-58
137	0x0b	11
138	0x7f	127
139	0xe0	-32
140	0x2b	43
141	0xe1	-31
142	0xba	-70
143	0x7f	127
144	0x50	80
145	0x6c	108
146	0x9f	-97
147	0x7f	127
148	0xd5	-43
149	0x32	50
150	0x14	20
151	0x81	-127
152	0x7f	127
153	0x6a	106
154	0xa7	-89
155	0x4c	76
156	0xd9	-39
157	0x11	17
158	0xf6	-10
159	0x24	36

tfl.pseudo_qconst23 i1 [32, 5, 1, 40]
0	0x2a	42
1	0x09	9
2	0xd7	-41
3	0xb0	-80
4	0xae	-82
5	0xff	-1
6	0x19	25
7	0xe4	-28
8	0x32	50
9	0xff	-1
10	0x14	20
11	0xf6	-10
12	0x48	72
13	0xe3	-29
14	0x06	6
15	0x32	50
16	0xf6	-10
17	0x1c	28
18	0x3a	58
19	0xe4	-28
20	0xb7	-73
21	0xcd	-51
22	0xe2	-30
23	0xd2	-46
24	0x16	22
25	0x18	24
26	0x2e	46
27	0x57	87
28	0x25	37
29	0x20	32
30	0xff	-1
31	0xba	-70
32	0xf9	-7
33	0x2e	46
34	0xef	-17
35	0xf0	-16
36	0x19	25
37	0xe0	-32
38	0xca	-54
39	0xe1	-31
40	0x20	32
41	0x14	20
42	0xe6	-26
43	0xc1	-63
44	0xcd	-51
45	0xe2	-30
46	0x2c	44
47	0x00	0
48	0x1c	28
49	0xef	-17
50	0x01	1
51	0x0b	11
52	0x3b	59
53	0xd9	-39
54	0x06	6
55	0x2a	42
56	0xf5	-11
57	0x25	37
58	0x24	36
59	0xd9	-39
60	0xdd	-35
61	0xc1	-63
62	0xe7	-25
63	0xf8	-8
64	0x0e	14
65	0x50	80
66	0x2d	45
67	0x39	57
68	0x3b	59
69	0x07	7
70	0x12	18
71	0xee	-18
72	0xf7	-9
73	0x32	50
74	0x10	16
75	0x1f	31
76	0x07	7
77	0x05	5
78	0xdd	-35
79	0xac	-84
80	0x10	16
81	0xff	-1
82	0xe0	-32
83	0x9a	-102
84	0xb2	-78
85	0xde	-34
86	0x1a	26
87	0xd8	-40
88	0x2c	44
89	0xfd	-3
90	0x1a	26
91	0xd7	-41
92	0x2b	43
93	0xf4	-12
94	0x11	17
95	0x32	50
96	0x10	16
97	0xee	-18
98	0x0d	13
99	0xd8	-40
100	0xb8	-72
101	0xd5	-43
102	0xda	-38
103	0xda	-38
104	0x24	36
105	0x2d	45
106	0x56	86
107	0x58	88
108	0x1a	26
109	0x09	9
110	0xfa	-6
111	0x1f	31
112	0x28	40
113	0x73	115
114	0x3d	61
115	0xfe	-2
116	0x23	35
117	0xcb	-53
118	0xeb	-21
119	0xdd	-35
120	0x22	34
121	0xe9	-23
122	0x14	20
123	0xe9	-23
124	0xe2	-30
125	0xb7	-73
126	0xe7	-25
127	0xe2	-30
128	0x16	22
129	0xd4	-44
130	0xea	-22
131	0xc3	-61
132	0x33	51
133	0xfa	-6
134	0xed	-19
135	0x0d	13
136	0x0e	14
137	0x27	39
138	0x17	23
139	0xd5	-43
140	0xeb	-21
141	0xff	-1
142	0xe7	-25
143	0xf3	-13
144	0x3c	60
145	0x5c	92
146	0x58	88
147	0x4b	75
148	0x13	19
149	0x03	3
150	0x18	24
151	0xf2	-14
152	0x17	23
153	0x49	73
154	0x28	40
155	0x11	17
156	0xf6	-10
157	0xd6	-42
158	0xd6	-42
159	0xb3	-77
160	0x0d	13
161	0xd9	-39
162	0xdd	-35
163	0xaa	-86
164	0xee	-18
165	0xfd	-3
166	0x00	0
167	0xf0	-16
168	0x08	8
169	0xd6	-42
170	0x05	5
171	0xf1	-15
172	0x2f	47
173	0xe3	-29
174	0xf4	-12
175	0x00	0
176	0x09	9
177	0xff	-1
178	0x09	9
179	0xed	-19
180	0xd4	-44
181	0xd1	-47
182	0xe9	-23
183	0x17	23
184	0x3a	58
185	0x7f	127
186	0x0d	13
187	0x08	8
188	0x08	8
189	0xf9	-7
190	0x0a	10
191	0xe7	-25
192	0x11	17
193	0x41	65
194	0x34	52
195	0x21	33
196	0x06	6
197	0xe6	-26
198	0xeb	-21
199	0xd7	-41
200	0xff	-1
201	0xbe	-66
202	0x18	24
203	0x94	-108
204	0x87	-121
205	0xd8	-40
206	0xb8	-72
207	0x11	17
208	0x47	71
209	0x42	66
210	0xe2	-30
211	0xe2	-30
212	0xa1	-95
213	0xd5	-43
214	0x01	1
215	0x21	33
216	0x0e	14
217	0x22	34
218	0x19	25
219	0xfe	-2
220	0xa2	-94
221	0xdc	-36
222	0xe2	-30
223	0xeb	-21
224	0xb1	-79
225	0xae	-82
226	0xaf	-81
227	0xec	-20
228	0xc3	-61
229	0x0e	14
230	0x1a	26
231	0x04	4
232	0xdf	-33
233	0xaf	-81
234	0x08	8
235	0xf8	-8
236	0xf6	-10
237	0x0d	13
238	0x25	37
239	0x09	9
240	0xe4	-28
241	0x03	3
242	0x94	-108
243	0x96	-106
244	0xce	-50
245	0x08	8
246	0xd1	-47
247	0xe2	-30
248	0x2a	42
249	0x4e	78
250	0xde	-34
251	0x04	4
252	0x10	16
253	0x22	34
254	0x3d	61
255	0x1c	28

tfl.pseudo_qconst24 i1 [1, 14, 1, 64] scale=0.045501404 zero_point=-128
0	0x80	0.0
1	0x80	0.0
2	0x80	0.0
3	0x80	0.0
4	0x80	0.0
5	0x80	0.0
6	0x80	0.0
7	0x80	0.0
8	0x80	0.0
9	0x80	0.0
10	0x80	0.0
11	0x80	0.0
12	0x80	0.0
13	0x80	0.0
14	0x80	0.0
15	0x80	0.0
16	0x80	0.0
17	0x80	0.0
18	0x80	0.0
19	0x80	0.0
20	0x80	0.0
21	0x80	0.0
22	0x80	0.0
23	0x80	0.0
24	0x80	0.0
25	0x80	0.0
26	0x80	0.0
27	0x80	0.0
28	0x80	0.0
29	0x80	0.0
30	0x80	0.0
31	0x80	0.0
32	0x80	0.0
33	0x80	0.0
34	0x80	0.0
35	0x80	0.0
36	0x80	0.0
37	0x80	0.0
38	0x80	0.0
39	0x80	0.0
40	0x80	0.0
41	0x80	0.0
42	0x80	0.0
43	0x80	0.0
44	0x80	0.0
45	0x80	0.0
46	0x80	0.0
47	0x80	0.0
48	0x80	0.0
49	0x80	0.0
50	0x80	0.0
51	0x80	0.0
52	0x80	0.0
53	0x80	0.0
54	0x80	0.0
55	0x80	0.0
56	0x80	0.0
57	0x80	0.0
58	0x80	0.0
59	0x80	0.0
60	0x80	0.0
61	0x80	0.0
62	0x80	0.0
63	0x80	0.0
64	0x80	0.0
65	0x80	0.0
66	0x80	0.0
67	0x80	0.0
68	0x80	0.0
69	0x80	0.0
70	0x80	0.0
71	0x80	0.0
72	0x80	0.0
73	0x80	0.0
74	0x80	0.0
75	0x80	0.0
76	0x80	0.0
77	0x80	0.0
78	0x80	0.0
79	0x80	0.0
80	0x80	0.0
81	0x80	0.0
82	0x80	0.0
83	0x80	0.0
84	0x80	0.0
85	0x80	0.0
86	0x80	0.0
87	0x80	0.0
88	0x80	0.0
89	0x80	0.0
90	0x80	0.0
91	0x80	0.0
92	0x80	0.0
93	0x80	0.0
94	0x80	0.0
95	0x80	0.0
96	0x80	0.0
97	0x80	0.0
98	0x80	0.0
99	0x80	0.0
100	0x80	0.0
101	0x80	0.0
102	0x80	0.0
103	0x80	0.0
104	0x80	0.0
105	0x80	0.0
106	0x80	0.0
107	0x80	0.0
108	0x80	0.0
109	0x80	0.0
110	0x80	0.0
111	0x80	0.0
112	0x80	0.0
113	0x80	0.0
114	0x80	0.0
115	0x80	0.0
116	0x80	0.0
117	0x80	0.0
118	0x80	0.0
119	0x80	0.0
120	0x80	0.0
121	0x80	0.0
122	0x80	0.0
123	0x80	0.0
124	0x80	0.0
125	0x80	0.0
126	0x80	0.0
127	0x80	0.0
128	0x80	0.0
129	0x80	0.0
130	0x80	0.0
131	0x80	0.0
132	0x80	0.0
133	0x80	0.0
134	0x80	0.0
135	0x80	0.0
136	0x80	0.0
137	0x80	0.0
138	0x80	0.0
139	0x80	0.0
140	0x80	0.0
141	0x80	0.0
142	0x80	0.0
143	0x80	0.0
144	0x80	0.0
145	0x80	0.0
146	0x80	0.0
147	0x80	0.0
148	0x80	0.0
149	0x80	0.0
150	0x80	0.0
151	0x80	0.0
152	0x80	0.0
153	0x80	0.0
154	0x80	0.0
155	0x80	0.0
156	0x80	0.0
157	0x80	0.0
158	0x80	0.0
159	0x80	0.0
160	0x80	0.0
161	0x80	0.0
162	0x80	0.0
163	0x80	0.0
164	0x80	0.0
165	0x80	0.0
166	0x80	0.0
167	0x80	0.0
168	0x80	0.0
169	0x80	0.0
170	0x80	0.0
171	0x80	0.0
172	0x80	0.0
173	0x80	0.0
174	0x80	0.0
175	0x80	0.0
176	0x80	0.0
177	0x80	0.0
178	0x80	0.0
179	0x80	0.0
180	0x80	0.0
181	0x80	0.0
182	0x80	0.0
183	0x80	0.0
184	0x80	0.0
185	0x80	0.0
186	0x80	0.0
187	0x80	0.0
188	0x80	0.0
189	0x80	0.0
190	0x80	0.0
191	0x80	0.0
192	0x80	0.0
193	0x80	0.0
194	0x80	0.0
195	0x80	0.0
196	0x80	0.0
197	0x80	0.0
198	0x80	0.0
199	0x80	0.0
200	0x80	0.0
201	0x80	0.0
202	0x80	0.0
203	0x80	0.0
204	0x80	0.0
205	0x80	0.0
206	0x80	0.0
207	0x80	0.0
208	0x80	0.0
209	0x80	0.0
210	0x80	0.0
211	0x80	0.0
212	0x80	0.0
213	0x80	0.0
214	0x80	0.0
215	0x80	0.0
216	0x80	0.0
217	0x80	0.0
218	0x80	0.0
219	0x80	0.0
220	0x80	0.0
221	0x80	0.0
222	0x80	0.0
223	0x80	0.0
224	0x80	0.0
225	0x80	0.0
226	0x80	0.0
227	0x80	0.0
228	0x80	0.0
229	0x80	0.0
230	0x80	0.0
231	0x80	0.0
232	0x80	0.0
233	0x80	0.0
234	0x80	0.0
235	0x80	0.0
236	0x80	0.0
237	0x80	0.0
238	0x80	0.0
239	0x80	0.0
240	0x80	0.0
241	0x80	0.0
242	0x80	0.0
243	0x80	0.0
244	0x80	0.0
245	0x80	0.0
246	0x80	0.0
247	0x80	0.0
248	0x80	0.0
249	0x80	0.0
250	0x80	0.0
251	0x80	0.0
252	0x80	0.0
253	0x80	0.0
254	0x80	0.0
255	0x80	0.0

tfl.pseudo_qconst25 i1 [1, 10, 1, 64] scale=0.043161996 zero_point=-128
0	0x80	0.0
1	0x80	0.0
2	0x80	0.0
3	0x80	0.0
4	0x80	0.0
5	0x80	0.0
6	0x80	0.0
7	0x80	0.0
8	0x80	0.0
9	0x80	0.0
10	0x80	0.0
11	0x80	0.0
12	0x80	0.0
13	0x80	0.0
14	0x80	0.0
15	0x80	0.0
16	0x80	0.0
17	0x80	0.0
18	0x80	0.0
19	0x80	0.0
20	0x80	0.0
21	0x80	0.0
22	0x80	0.0
23	0x80	0.0
24	0x80	0.0
25	0x80	0.0
26	0x80	0.0
27	0x80	0.0
28	0x80	0.0
29	0x80	0.0
30	0x80	0.0
31	0x80	0.0
32	0x80	0.0
33	0x80	0.0
34	0x80	0.0
35	0x80	0.0
36	0x80	0.0
37	0x80	0.0
38	0x80	0.0
39	0x80	0.0
40	0x80	0.0
41	0x80	0.0
42	0x80	0.0
43	0x80	0.0
44	0x80	0.0
45	0x80	0.0
46	0x80	0.0
47	0x80	0.0
48	0x80	0.0
49	0x80	0.0
50	0x80	0.0
51	0x80	0.0
52	0x80	0.0
53	0x80	0.0
54	0x80	0.0
55	0x80	0.0
56	0x80	0.0
57	0x80	0.0
58	0x80	0.0
59	0x80	0.0
60	0x80	0.0
61	0x80	0.0
62	0x80	0.0
63	0x80	0.0
64	0x80	0.0
65	0x80	0.0
66	0x80	0.0
67	0x80	0.0
68	0x80	0.0
69	0x80	0.0
70	0x80	0.0
71	0x80	0.0
72	0x80	0.0
73	0x80	0.0
74	0x80	0.0
75	0x80	0.0
76	0x80	0.0
77	0x80	0.0
78	0x80	0.0
79	0x80	0.0
80	0x80	0.0
81	0x80	0.0
82	0x80	0.0
83	0x80	0.0
84	0x80	0.0
85	0x80	0.0
86	0x80	0.0
87	0x80	0.0
88	0x80	0.0
89	0x80	0.0
90	0x80	0.0
91	0x80	0.0
92	0x80	0.0
93	0x80	0.0
94	0x80	0.0
95	0x80	0.0
96	0x80	0.0
97	0x80	0.0
98	0x80	0.0
99	0x80	0.0
100	0x80	0.0
101	0x80	0.0
102	0x80	0.0
103	0x80	0.0
104	0x80	0.0
105	0x80	0.0
106	0x80	0.0
107	0x80	0.0
108	0x80	0.0
109	0x80	0.0
110	0x80	0.0
111	0x80	0.0
112	0x80	0.0
113	0x80	0.0
114	0x80	0.0
115	0x80	0.0
116	0x80	0.0
117	0x80	0.0
118	0x80	0.0
119	0x80	0.0
120	0x80	0.0
121	0x80	0.0
122	0x80	0.0
123	0x80	0.0
124	0x80	0.0
125	0x80	0.0
126	0x80	0.0
127	0x80	0.0
128	0x80	0.0
129	0x80	0.0
130	0x80	0.0
131	0x80	0.0
132	0x80	0.0
133	0x80	0.0
134	0x80	0.0
135	0x80	0.0
136	0x80	0.0
137	0x80	0.0
138	0x80	0.0
139	0x80	0.0
140	0x80	0.0
141	0x80	0.0
142	0x80	0.0
143	0x80	0.0
144	0x80	0.0
145	0x80	0.0
146	0x80	0.0
147	0x80	0.0
148	0x80	0.0
149	0x80	0.0
150	0x80	0.0
151	0x80	0.0
152	0x80	0.0
153	0x80	0.0
154	0x80	0.0
155	0x80	0.0
156	0x80	0.0
157	0x80	0.0
158	0x80	0.0
159	0x80	0.0
160	0x80	0.0
161	0x80	0.0
162	0x80	0.0
163	0x80	0.0
164	0x80	0.0
165	0x80	0.0
166	0x80	0.0
167	0x80	0.0
168	0x80	0.0
169	0x80	0.0
170	0x80	0.0
171	0x80	0.0
172	0x80	0.0
173	0x80	0.0
174	0x80	0.0
175	0x80	0.0
176	0x80	0.0
177	0x80	0.0
178	0x80	0.0
179	0x80	0.0
180	0x80	0.0
181	0x80	0.0
182	0x80	0.0
183	0x80	0.0
184	0x80	0.0
185	0x80	0.0
186	0x80	0.0
187	0x80	0.0
188	0x80	0.0
189	0x80	0.0
190	0x80	0.0
191	0x80	0.0
192	0x80	0.0
193	0x80	0.0
194	0x80	0.0
195	0x80	0.0
196	0x80	0.0
197	0x80	0.0
198	0x80	0.0
199	0x80	0.0
200	0x80	0.0
201	0x80	0.0
202	0x80	0.0
203	0x80	0.0
204	0x80	0.0
205	0x80	0.0
206	0x80	0.0
207	0x80	0.0
208	0x80	0.0
209	0x80	0.0
210	0x80	0.0
211	0x80	0.0
212	0x80	0.0
213	0x80	0.0
214	0x80	0.0
215	0x80	0.0
216	0x80	0.0
217	0x80	0.0
218	0x80	0.0
219	0x80	0.0
220	0x80	0.0
221	0x80	0.0
222	0x80	0.0
223	0x80	0.0
224	0x80	0.0
225	0x80	0.0
226	0x80	0.0
227	0x80	0.0
228	0x80	0.0
229	0x80	0.0
230	0x80	0.0
231	0x80	0.0
232	0x80	0.0
233	0x80	0.0
234	0x80	0.0
235	0x80	0.0
236	0x80	0.0
237	0x80	0.0
238	0x80	0.0
239	0x80	0.0
240	0x80	0.0
241	0x80	0.0
242	0x80	0.0
243	0x80	0.0
244	0x80	0.0
245	0x80	0.0
246	0x80	0.0
247	0x80	0.0
248	0x80	0.0
249	0x80	0.0
250	0x80	0.0
251	0x80	0.0
252	0x80	0.0
253	0x80	0.0
254	0x80	0.0
255	0x80	0.0

tfl.pseudo_qconst26 i1 [1, 4, 1, 32] scale=0.9459477 zero_point=-128
0	0x80	0.0
1	0x80	0.0
2	0x80	0.0
3	0x80	0.0
4	0x80	0.0
5	0x80	0.0
6	0x80	0.0
7	0x80	0.0
8	0x80	0.0
9	0x80	0.0
10	0x80	0.0
11	0x80	0.0
12	0x80	0.0
13	0x80	0.0
14	0x80	0.0
15	0x80	0.0
16	0x80	0.0
17	0x80	0.0
18	0x80	0.0
19	0x80	0.0
20	0x80	0.0
21	0x80	0.0
22	0x80	0.0
23	0x80	0.0
24	0x80	0.0
25	0x80	0.0
26	0x80	0.0
27	0x80	0.0
28	0x80	0.0
29	0x80	0.0
30	0x80	0.0
31	0x80	0.0
32	0x80	0.0
33	0x80	0.0
34	0x80	0.0
35	0x80	0.0
36	0x80	0.0
37	0x80	0.0
38	0x80	0.0
39	0x80	0.0
40	0x80	0.0
41	0x80	0.0
42	0x80	0.0
43	0x80	0.0
44	0x80	0.0
45	0x80	0.0
46	0x80	0.0
47	0x80	0.0
48	0x80	0.0
49	0x80	0.0
50	0x80	0.0
51	0x80	0.0
52	0x80	0.0
53	0x80	0.0
54	0x80	0.0
55	0x80	0.0
56	0x80	0.0
57	0x80	0.0
58	0x80	0.0
59	0x80	0.0
60	0x80	0.0
61	0x80	0.0
62	0x80	0.0
63	0x80	0.0
64	0x80	0.0
65	0x80	0.0
66	0x80	0.0
67	0x80	0.0
68	0x80	0.0
69	0x80	0.0
70	0x80	0.0
71	0x80	0.0
72	0x80	0.0
73	0x80	0.0
74	0x80	0.0
75	0x80	0.0
76	0x80	0.0
77	0x80	0.0
78	0x80	0.0
79	0x80	0.0
80	0x80	0.0
81	0x80	0.0
82	0x80	0.0
83	0x80	0.0
84	0x80	0.0
85	0x80	0.0
86	0x80	0.0
87	0x80	0.0
88	0x80	0.0
89	0x80	0.0
90	0x80	0.0
91	0x80	0.0
92	0x80	0.0
93	0x80	0.0
94	0x80	0.0
95	0x80	0.0
96	0x80	0.0
97	0x80	0.0
98	0x80	0.0
99	0x80	0.0
100	0x80	0.0
101	0x80	0.0
102	0x80	0.0
103	0x80	0.0
104	0x80	0.0
105	0x80	0.0
106	0x80	0.0
107	0x80	0.0
108	0x80	0.0
109	0x80	0.0
110	0x80	0.0
111	0x80	0.0
112	0x80	0.0
113	0x80	0.0
114	0x80	0.0
115	0x80	0.0
116	0x80	0.0
117	0x80	0.0
118	0x80	0.0
119	0x80	0.0
120	0x80	0.0
121	0x80	0.0
122	0x80	0.0
123	0x80	0.0
124	0x80	0.0
125	0x80	0.0
126	0x80	0.0
127	0x80	0.0

tfl.pseudo_qconst27 i1 [1, 2, 1, 40] scale=0.101960786 zero_point=-128
0	0x80	0.0
1	0x80	0.0
2	0x80	0.0
3	0x80	0.0
4	0x80	0.0
5	0x80	0.0
6	0x80	0.0
7	0x80	0.0
8	0x80	0.0
9	0x80	0.0
10	0x80	0.0
11	0x80	0.0
12	0x80	0.0
13	0x80	0.0
14	0x80	0.0
15	0x80	0.0
16	0x80	0.0
17	0x80	0.0
18	0x80	0.0
19	0x80	0.0
20	0x80	0.0
21	0x80	0.0
22	0x80	0.0
23	0x80	0.0
24	0x80	0.0
25	0x80	0.0
26	0x80	0.0
27	0x80	0.0
28	0x80	0.0
29	0x80	0.0
30	0x80	0.0
31	0x80	0.0
32	0x80	0.0
33	0x80	0.0
34	0x80	0.0
35	0x80	0.0
36	0x80	0.0
37	0x80	0.0
38	0x80	0.0
39	0x80	0.0
40	0x80	0.0
41	0x80	0.0
42	0x80	0.0
43	0x80	0.0
44	0x80	0.0
45	0x80	0.0
46	0x80	0.0
47	0x80	0.0
48	0x80	0.0
49	0x80	0.0
50	0x80	0.0
51	0x80	0.0
52	0x80	0.0
53	0x80	0.0
54	0x80	0.0
55	0x80	0.0
56	0x80	0.0
57	0x80	0.0
58	0x80	0.0
59	0x80	0.0
60	0x80	0.0
61	0x80	0.0
62	0x80	0.0
63	0x80	0.0
64	0x80	0.0
65	0x80	0.0
66	0x80	0.0
67	0x80	0.0
68	0x80	0.0
69	0x80	0.0
70	0x80	0.0
71	0x80	0.0
72	0x80	0.0
73	0x80	0.0
74	0x80	0.0
75	0x80	0.0
76	0x80	0.0
77	0x80	0.0
78	0x80	0.0
79	0x80	0.0

tfl.pseudo_qconst28 i1 [1, 16, 1, 64] scale=0.025802972 zero_point=-128
0	0x80	0.0
1	0x80	0.0
2	0x80	0.0
3	0x80	0.0
4	0x80	0.0
5	0x80	0.0
6	0x80	0.0
7	0x80	0.0
8	0x80	0.0
9	0x80	0.0
10	0x80	0.0
11	0x80	0.0
12	0x80	0.0
13	0x80	0.0
14	0x80	0.0
15	0x80	0.0
16	0x80	0.0
17	0x80	0.0
18	0x80	0.0
19	0x80	0.0
20	0x80	0.0
21	0x80	0.0
22	0x80	0.0
23	0x80	0.0
24	0x80	0.0
25	0x80	0.0
26	0x80	0.0
27	0x80	0.0
28	0x80	0.0
29	0x80	0.0
30	0x80	0.0
31	0x80	0.0
32	0x80	0.0
33	0x80	0.0
34	0x80	0.0
35	0x80	0.0
36	0x80	0.0
37	0x80	0.0
38	0x80	0.0
39	0x80	0.0
40	0x80	0.0
41	0x80	0.0
42	0x80	0.0
43	0x80	0.0
44	0x80	0.0
45	0x80	0.0
46	0x80	0.0
47	0x80	0.0
48	0x80	0.0
49	0x80	0.0
50	0x80	0.0
51	0x80	0.0
52	0x80	0.0
53	0x80	0.0
54	0x80	0.0
55	0x80	0.0
56	0x80	0.0
57	0x80	0.0
58	0x80	0.0
59	0x80	0.0
60	0x80	0.0
61	0x80	0.0
62	0x80	0.0
63	0x80	0.0
64	0x80	0.0
65	0x80	0.0
66	0x80	0.0
67	0x80	0.0
68	0x80	0.0
69	0x80	0.0
70	0x80	0.0
71	0x80	0.0
72	0x80	0.0
73	0x80	0.0
74	0x80	0.0
75	0x80	0.0
76	0x80	0.0
77	0x80	0.0
78	0x80	0.0
79	0x80	0.0
80	0x80	0.0
81	0x80	0.0
82	0x80	0.0
83	0x80	0.0
84	0x80	0.0
85	0x80	0.0
86	0x80	0.0
87	0x80	0.0
88	0x80	0.0
89	0x80	0.0
90	0x80	0.0
91	0x80	0.0
92	0x80	0.0
93	0x80	0.0
94	0x80	0.0
95	0x80	0.0
96	0x80	0.0
97	0x80	0.0
98	0x80	0.0
99	0x80	0.0
100	0x80	0.0
101	0x80	0.0
102	0x80	0.0
103	0x80	0.0
104	0x80	0.0
105	0x80	0.0
106	0x80	0.0
107	0x80	0.0
108	0x80	0.0
109	0x80	0.0
110	0x80	0.0
111	0x80	0.0
112	0x80	0.0
113	0x80	0.0
114	0x80	0.0
115	0x80	0.0
116	0x80	0.0
117	0x80	0.0
118	0x80	0.0
119	0x80	0.0
120	0x80	0.0
121	0x80	0.0
122	0x80	0.0
123	0x80	0.0
124	0x80	0.0
125	0x80	0.0
126	0x80	0.0
127	0x80	0.0
128	0x80	0.0
129	0x80	0.0
130	0x80	0.0
131	0x80	0.0
132	0x80	0.0
133	0x80	0.0
134	0x80	0.0
135	0x80	0.0
136	0x80	0.0
137	0x80	0.0
138	0x80	0.0
139	0x80	0.0
140	0x80	0.0
141	0x80	0.0
142	0x80	0.0
143	0x80	0.0
144	0x80	0.0
145	0x80	0.0
146	0x80	0.0
147	0x80	0.0
148	0x80	0.0
149	0x80	0.0
150	0x80	0.0
151	0x80	0.0
152	0x80	0.0
153	0x80	0.0
154	0x80	0.0
155	0x80	0.0
156	0x80	0.0
157	0x80	0.0
158	0x80	0.0
159	0x80	0.0
160	0x80	0.0
161	0x80	0.0
162	0x80	0.0
163	0x80	0.0
164	0x80	0.0
165	0x80	0.0
166	0x80	0.0
167	0x80	0.0
168	0x80	0.0
169	0x80	0.0
170	0x80	0.0
171	0x80	0.0
172	0x80	0.0
173	0x80	0.0
174	0x80	0.0
175	0x80	0.0
176	0x80	0.0
177	0x80	0.0
178	0x80	0.0
179	0x80	0.0
180	0x80	0.0
181	0x80	0.0
182	0x80	0.0
183	0x80	0.0
184	0x80	0.0
185	0x80	0.0
186	0x80	0.0
187	0x80	0.0
188	0x80	0.0
189	0x80	0.0
190	0x80	0.0
191	0x80	0.0
192	0x80	0.0
193	0x80	0.0
194	0x80	0.0
195	0x80	0.0
196	0x80	0.0
197	0x80	0.0
198	0x80	0.0
199	0x80	0.0
200	0x80	0.0
201	0x80	0.0
202	0x80	0.0
203	0x80	0.0
204	0x80	0.0
205	0x80	0.0
206	0x80	0.0
207	0x80	0.0
208	0x80	0.0
209	0x80	0.0
210	0x80	0.0
211	0x80	0.0
212	0x80	0.0
213	0x80	0.0
214	0x80	0.0
215	0x80	0.0
216	0x80	0.0
217	0x80	0.0
218	0x80	0.0
219	0x80	0.0
220	0x80	0.0
221	0x80	0.0
222	0x80	0.0
223	0x80	0.0
224	0x80	0.0
225	0x80	0.0
226	0x80	0.0
227	0x80	0.0
228	0x80	0.0
229	0x80	0.0
230	0x80	0.0
231	0x80	0.0
232	0x80	0.0
233	0x80	0.0
234	0x80	0.0
235	0x80	0.0
236	0x80	0.0
237	0x80	0.0
238	0x80	0.0
239	0x80	0.0
240	0x80	0.0
241	0x80	0.0
242	0x80	0.0
243	0x80	0.0
244	0x80	0.0
245	0x80	0.0
246	0x80	0.0
247	0x80	0.0
248	0x80	0.0
249	0x80	0.0
250	0x80	0.0
251	0x80	0.0
252	0x80	0.0
253	0x80	0.0
254	0x80	0.0
255	0x80	0.0
