hey_talos.tflite (tflite, 60936 bytes, 18 tensors)

tfl.pseudo_qconst1 i1 [1, 1088] scale=0.0037674697 zero_point=0
000000 00 c9 cc ef f5 05 29 dc 00 cb 00 ef 30 e9 09 11
       0.0 -0.20721084 -0.19590843 -0.06404699 -0.041442167 0.018837348 0.15446626 -0.13562891 0.0 -0.19967589 0.0 -0.06404699 0.18083854 -0.0866518 0.033907227 0.06404699
000010 f8 f3 08 fb 06 04 fd fd ed f4 fb 10 01 c5 30 b7
       -0.030139757 -0.048977107 0.030139757 -0.018837348 0.022604818 0.015069879 -0.011302409 -0.011302409 -0.07158192 -0.045209635 -0.018837348 0.060279515 0.0037674697 -0.22228071 0.18083854 -0.27502528
000020 2a db c4 fe e4 03 ff ec e1 f8 d7 db f4 f7 f4 ce
       0.15823373 -0.13939638 -0.22604819 -0.0075349393 -0.10548915 0.011302409 -0.0037674697 -0.07534939 -0.11679156 -0.030139757 -0.15446626 -0.13939638 -0.045209635 -0.033907227 -0.045209635 -0.18837348
000030 1e f6 e9 02 08 d0 d9 f4 fb ed c4 03 dd db cc 01
       0.11302409 -0.037674695 -0.0866518 0.0075349393 0.030139757 -0.18083854 -0.14693132 -0.045209635 -0.018837348 -0.07158192 -0.22604819 0.011302409 -0.13186143 -0.13939638 -0.19590843 0.0037674697
000040 e7 b7 c5 00 d6 e4 19 e9 15 d5 fe fc 1f f4 07 0c
       -0.09418674 -0.27502528 -0.22228071 0.0 -0.15823373 -0.10548915 0.09418674 -0.0866518 0.079116866 -0.1620012 -0.0075349393 -0.015069879 0.11679156 -0.045209635 0.026372287 0.045209635
000050 fa ca 05 fe 05 d4 f6 fa 05 e4 d9 09 10 e3 1c d1
       -0.022604818 -0.20344336 0.018837348 -0.0075349393 0.018837348 -0.16576867 -0.037674695 -0.022604818 0.018837348 -0.10548915 -0.14693132 0.033907227 0.060279515 -0.10925662 0.10548915 -0.17707108
000060 07 fa cd ed 06 03 1c f3 e3 16 e1 cc e9 f7 ea d4
       0.026372287 -0.022604818 -0.19214095 -0.07158192 0.022604818 0.011302409 0.10548915 -0.048977107 -0.10925662 0.082884334 -0.11679156 -0.19590843 -0.0866518 -0.033907227 -0.082884334 -0.16576867
000070 12 17 cf f9 19 bd f2 f7 f9 eb dd fd db ee d8 14
       0.067814454 0.0866518 -0.18460602 -0.026372287 0.09418674 -0.25242046 -0.052744575 -0.033907227 -0.026372287 -0.079116866 -0.13186143 -0.011302409 -0.13939638 -0.067814454 -0.15069878 0.07534939
000080 0a ac ce f0 f6 df 1b fe 0a e8 fa f4 1f e5 08 f9
       0.037674695 -0.31646746 -0.18837348 -0.060279515 -0.037674695 -0.1243265 0.10172168 -0.0075349393 0.037674695 -0.09041927 -0.022604818 -0.045209635 0.11679156 -0.10172168 0.030139757 -0.026372287
000090 de ce 0a 02 ed cd f8 0f 1d d0 ed f0 f8 f7 0f eb
       -0.12809397 -0.18837348 0.037674695 0.0075349393 -0.07158192 -0.19214095 -0.030139757 0.056512047 0.10925662 -0.18083854 -0.07158192 -0.060279515 -0.030139757 -0.033907227 0.056512047 -0.079116866
0000a0 0a ed e1 f5 f4 25 10 f5 c6 1d d9 ea f7 f3 dd ef
       0.037674695 -0.07158192 -0.11679156 -0.041442167 -0.045209635 0.13939638 0.060279515 -0.041442167 -0.21851324 0.10925662 -0.14693132 -0.082884334 -0.033907227 -0.048977107 -0.13186143 -0.06404699
0000b0 f8 f7 ee f6 03 cc 04 f3 fc ec e2 f9 ee ff c2 fa
       -0.030139757 -0.033907227 -0.067814454 -0.037674695 0.011302409 -0.19590843 0.015069879 -0.048977107 -0.015069879 -0.07534939 -0.11302409 -0.026372287 -0.067814454 -0.0037674697 -0.23358312 -0.022604818
0000c0 f8 b0 d6 e0 f1 f4 1a 02 07 fd 10 e6 19 f9 fd d7
       -0.030139757 -0.30139756 -0.15823373 -0.12055903 -0.056512047 -0.045209635 0.09795421 0.0075349393 0.026372287 -0.011302409 0.060279515 -0.09795421 0.09418674 -0.026372287 -0.011302409 -0.15446626
0000d0 cb d5 09 eb ed d7 04 07 08 c6 fb 12 0d e9 13 e0
       -0.19967589 -0.1620012 0.033907227 -0.079116866 -0.07158192 -0.15446626 0.015069879 0.026372287 0.030139757 -0.21851324 -0.018837348 0.067814454 0.048977107 -0.0866518 0.07158192 -0.12055903
0000e0 05 e0 e6 1a de 11 f4 d7 d7 07 e3 ee ea 10 e2 02
       0.018837348 -0.12055903 -0.09795421 0.09795421 -0.12809397 0.06404699 -0.045209635 -0.15446626 -0.15446626 0.026372287 -0.10925662 -0.067814454 -0.082884334 0.060279515 -0.11302409 0.0075349393
0000f0 ed f5 ec 05 f9 d8 0a ec 06 d8 e8 e3 0e f2 f0 ef
       -0.07158192 -0.041442167 -0.07534939 0.018837348 -0.026372287 -0.15069878 0.037674695 -0.07534939 0.022604818 -0.15069878 -0.09041927 -0.10925662 0.052744575 -0.052744575 -0.060279515 -0.06404699

tfl.pseudo_qconst3 i1 [64, 1, 1, 64]
000000 be ee e3 db 13 3f 13 50 ce e7 de 27 11 d9 e5 15
       -66 -18 -29 -37 19 63 19 80 -50 -25 -34 39 17 -39 -27 21
000010 40 28 16 fe 13 22 20 e3 ec 06 fc d9 38 00 00 c0
       64 40 22 -2 19 34 32 -29 -20 6 -4 -39 56 0 0 -64
000020 ea c5 22 2e 81 17 fa 56 ff 3c f2 05 05 cb d7 de
       -22 -59 34 46 -127 23 -6 86 -1 60 -14 5 5 -53 -41 -34
000030 d0 15 54 df 2b 2a c9 42 fe d6 24 1e 1a f9 20 37
       -48 21 84 -33 43 42 -55 66 -2 -42 36 30 26 -7 32 55
000040 08 ff f2 2d d5 f4 07 dd 37 3e e7 bf 25 68 ee c5
       8 -1 -14 45 -43 -12 7 -35 55 62 -25 -65 37 104 -18 -59
000050 1b 24 c9 0e c8 ed ee b9 99 f0 1b 9c 08 0f 0a 34
       27 36 -55 14 -56 -19 -18 -71 -103 -16 27 -100 8 15 10 52
000060 3a 26 06 c3 e7 16 24 ee 08 be 58 46 c2 c3 d5 f8
       58 38 6 -61 -25 22 36 -18 8 -66 88 70 -62 -61 -43 -8
000070 11 3f e5 25 52 c8 09 81 e9 ad a6 1a 04 fa a3 38
       17 63 -27 37 82 -56 9 -127 -23 -83 -90 26 4 -6 -93 56
000080 d5 06 10 f0 ea 17 34 c5 f4 ff dd 18 f3 76 30 cc
       -43 6 16 -16 -22 23 52 -59 -12 -1 -35 24 -13 118 48 -52
000090 0e 2a 3b c8 cd ef d2 f1 39 b0 e8 07 e7 d9 d2 c1
       14 42 59 -56 -51 -17 -46 -15 57 -80 -24 7 -25 -39 -46 -63
0000a0 22 1f f5 bc f0 d8 e8 f8 e4 d6 ef e5 b8 c9 03 f8
       34 31 -11 -68 -16 -40 -24 -8 -28 -42 -17 -27 -72 -55 3 -8
0000b0 29 7f 56 91 01 bf 71 cb 22 c2 a8 bf e7 d2 df 44
       41 127 86 -111 1 -65 113 -53 34 -62 -88 -65 -25 -46 -33 68
0000c0 d4 5e b6 25 be 35 21 81 dd 4a 21 cb d3 b0 28 f7
       -44 94 -74 37 -66 53 33 -127 -35 74 33 -53 -45 -80 40 -9
0000d0 8d cc 17 10 da 0d 12 57 c2 38 50 a2 e9 df d0 61
       -115 -52 23 16 -38 13 18 87 -62 56 80 -94 -23 -33 -48 97
0000e0 d8 eb 0d d7 df b8 3f 0c 58 06 f8 18 58 43 ef 3c
       -40 -21 13 -41 -33 -72 63 12 88 6 -8 24 88 67 -17 60
0000f0 10 d9 fb f1 26 0f ed ca c3 2d 15 27 39 34 db 51
       16 -39 -5 -15 38 15 -19 -54 -61 45 21 39 57 52 -37 81

tfl.pseudo_qconst5 i1 [1, 23, 1, 64]
000000 bc 8d 81 c9 7f 7f d6 0a ff d5 e9 a5 74 c8 6e 81
       -68 -115 -127 -55 127 127 -42 10 -1 -43 -23 -91 116 -56 110 -127
000010 0e 90 b5 81 81 35 b9 ea 20 2e 61 01 cf 7f b3 5a
       14 -112 -75 -127 -127 53 -71 -22 32 46 97 1 -49 127 -77 90
000020 03 d2 38 37 25 7f 2c 02 7f c5 0b e1 81 7f bd e2
       3 -46 56 55 37 127 44 2 127 -59 11 -31 -127 127 -67 -30
000030 b0 7f 81 ca c7 ff 22 05 4d 13 46 db 7f 7f 23 17
       -80 127 -127 -54 -57 -1 34 5 77 19 70 -37 127 127 35 23
000040 f0 96 e1 b2 5b 68 2b 14 2d f0 e1 e1 6d de 47 fa
       -16 -106 -31 -78 91 104 43 20 45 -16 -31 -31 109 -34 71 -6
000050 2b 9b f0 ac c3 0b 9b de f3 f3 5a 18 e7 4f 85 59
       43 -101 -16 -84 -61 11 -101 -34 -13 -13 90 24 -25 79 -123 89
000060 3a e3 2b 5f 0d 5f 20 4a 67 f0 d9 26 a3 56 00 eb
       58 -29 43 95 13 95 32 74 103 -16 -39 38 -93 86 0 -21
000070 41 4e c7 f0 d5 b3 68 bb 5b 0c 36 d4 5a 2e 2a 2c
       65 78 -57 -16 -43 -77 104 -69 91 12 54 -44 90 46 42 44
000080 2f bb b8 c0 09 5b 2e 19 32 e8 de a0 46 d8 7f b3
       47 -69 -72 -64 9 91 46 25 50 -24 -34 -96 70 -40 127 -77
000090 2d bf fc be f4 0c 9f c9 0d df 7e 3f b6 3b d4 6d
       45 -65 -4 -66 -12 12 -97 -55 13 -33 126 63 -74 59 -44 109
0000a0 00 dd 2a 79 07 5a 2a 6e 2c fa fc 3c 8d 44 e2 f4
       0 -35 42 121 7 90 42 110 44 -6 -4 60 -115 68 -30 -12
0000b0 20 2e e4 81 20 e2 68 d4 17 39 50 08 35 45 fd 08
       32 46 -28 -127 32 -30 104 -44 23 57 80 8 53 69 -3 8
0000c0 43 21 13 d8 3e 58 4a 22 78 ec ad f1 49 ff 74 df
       67 33 19 -40 62 88 74 34 120 -20 -83 -15 73 -1 116 -33
0000d0 59 4e f0 fe 18 2a dd d5 cc c0 7f 36 08 44 96 58
       89 78 -16 -2 24 42 -35 -43 -52 -64 127 54 8 68 -106 88
0000e0 ea dc 22 7f f8 26 2d 63 fe e4 2c 07 c3 25 dd 3d
       -22 -36 34 127 -8 38 45 99 -2 -28 44 7 -61 37 -35 61
0000f0 2c f9 e4 8a ff c3 7f fb 24 49 11 f9 40 62 e7 f5
       44 -7 -28 -118 -1 -61 127 -5 36 73 17 -7 64 98 -25 -11

tfl.pseudo_qconst7 i1 [64, 1, 1, 64]
000000 4b f3 29 2a f0 9e 02 c0 2a 29 7f a7 f5 06 3f cb
       75 -13 41 42 -16 -98 2 -64 42 41 127 -89 -11 6 63 -53
000010 5e eb 56 07 f5 09 35 e9 e4 d5 1e 24 d4 c1 d8 f4
       94 -21 86 7 -11 9 53 -23 -28 -43 30 36 -44 -63 -40 -12
000020 f0 07 51 42 18 47 c1 ed 13 0a e1 28 da 19 c7 13
       -16 7 81 66 24 71 -63 -19 19 10 -31 40 -38 25 -57 19
000030 31 0b 3f 2e e9 0c 29 53 e1 db 2a c7 0b 1c d2 0f
       49 11 63 46 -23 12 41 83 -31 -37 42 -57 11 28 -46 15
000040 c0 2f a4 38 1b 10 17 05 e8 72 23 73 b3 44 99 e2
       -64 47 -92 56 27 16 23 5 -24 114 35 115 -77 68 -103 -30
000050 0d c0 eb fd 96 de ab 4e 12 d9 f6 e4 3b af fe 31
       13 -64 -21 -3 -106 -34 -85 78 18 -39 -10 -28 59 -81 -2 49
000060 94 a5 a6 ce 81 28 b1 52 9a e1 10 46 f6 06 18 54
       -108 -91 -90 -50 -127 40 -79 82 -102 -31 16 70 -10 6 24 84
000070 dd 2c 3a d2 c7 57 eb 98 b2 c7 ec c6 e7 a4 f3 27
       -35 44 58 -46 -57 87 -21 -104 -78 -57 -20 -58 -25 -92 -13 39
000080 00 f1 0d 0e 03 20 d8 dd bb 11 25 32 d5 30 e3 a6
       0 -15 13 14 3 32 -40 -35 -69 17 37 50 -43 48 -29 -90
000090 93 15 30 f5 b8 fc d2 9e cb f5 b0 12 3d 21 14 1c
       -109 21 48 -11 -72 -4 -46 -98 -53 -11 -80 18 61 33 20 28
0000a0 e3 e9 49 df a5 7f fc c2 fd bb 08 11 16 32 14 c8
       -29 -23 73 -33 -91 127 -4 -62 -3 -69 8 17 22 50 20 -56
0000b0 c7 50 27 60 35 48 11 d7 e5 b1 05 dc cc e3 2e e2
       -57 80 39 96 53 72 17 -41 -27 -79 5 -36 -52 -29 46 -30
0000c0 95 ff 1b e9 e4 14 49 06 d7 f2 fa 18 2c 52 d7 60
       -107 -1 27 -23 -28 20 73 6 -41 -14 -6 24 44 82 -41 96
0000d0 33 34 b5 dd e5 09 e8 08 f4 4e ec 03 b9 04 cc b3
       51 52 -75 -35 -27 9 -24 8 -12 78 -20 3 -71 4 -52 -77
0000e0 54 e8 f8 c9 e4 d0 dc 04 e5 02 17 a7 d8 09 33 ca
       84 -24 -8 -55 -28 -48 -36 4 -27 2 23 -89 -40 9 51 -54
0000f0 07 dc 06 10 1e a7 99 5a 32 7f 21 e5 3b bd bf da
       7 -36 6 16 30 -89 -103 90 50 127 33 -27 59 -67 -65 -38

tfl.pseudo_qconst9 i1 [1, 15, 1, 32]
000000 1f 02 81 f6 42 5c e3 82 85 f8 7f 7f 37 bc 81 dd
       31 2 -127 -10 66 92 -29 -126 -123 -8 127 127 55 -68 -127 -35
000010 42 81 81 81 45 2e e4 81 48 81 f0 f8 64 51 3b d9
       66 -127 -127 -127 69 46 -28 -127 72 -127 -16 -8 100 81 59 -39
000020 2c 0c c4 fd 04 7f be 15 81 e6 5d e8 0f 81 9d 15
       44 12 -60 -3 4 127 -66 21 -127 -26 93 -24 15 -127 -99 21
000030 78 ba b9 e8 76 0b 7d 88 7f b3 ba cf 0a 51 0b 10
       120 -70 -71 -24 118 11 125 -120 127 -77 -70 -49 10 81 11 16
000040 cc 7d 26 ee f7 51 8b e5 94 d0 5f d5 1d 1c ad 06
       -52 125 38 -18 -9 81 -117 -27 -108 -48 95 -43 29 28 -83 6
000050 54 ef e2 b4 7f f9 5b 0f 66 c4 15 89 2e fc 2b 1f
       84 -17 -30 -76 127 -7 91 15 102 -60 21 -119 46 -4 43 31
000060 17 59 1e 19 d1 5a b7 5c 01 a7 49 db 07 5d b2 7f
       23 89 30 25 -47 90 -73 92 1 -89 73 -37 7 93 -78 127
000070 11 f9 e6 b5 76 09 27 1a 6a b7 24 1e e4 ea c4 48
       17 -7 -26 -75 118 9 39 26 106 -73 36 30 -28 -22 -60 72
000080 2b 7f d5 d1 14 0f 8a 81 dd e7 0f cd a0 4e cb 37
       43 127 -43 -47 20 15 -118 -127 -35 -25 15 -51 -96 78 -53 55
000090 4e d1 e1 d1 58 0b 0f 19 1c 01 7f fc 81 2d fd 1f
       78 -47 -31 -47 88 11 15 25 28 1 127 -4 -127 45 -3 31
0000a0 ff 03 fe e7 f7 34 a3 10 18 34 1b de 81 67 0d f5
       -1 3 -2 -25 -9 52 -93 16 24 52 27 -34 -127 103 13 -11
0000b0 0e 38 e1 1f 3c ec e9 db 64 df 5c 60 9a df 81 d5
       14 56 -31 31 60 -20 -23 -37 100 -33 92 96 -102 -33 -127 -43
0000c0 f2 f4 ee 90 84 e5 ed 89 18 ec d7 95 da 78 f5 16
       -14 -12 -18 -112 -124 -27 -19 -119 24 -20 -41 -107 -38 120 -11 22
0000d0 cb 57 db 6f 68 b6 36 14 e0 00 2c 5c ba b7 87 e9
       -53 87 -37 111 104 -74 54 20 -32 0 44 92 -70 -73 -121 -23
0000e0 ca c7 db cf a8 12 c0 f9 e2 ca f8 3e aa fc 18 20
       -54 -57 -37 -49 -88 18 -64 -7 -30 -54 -8 62 -86 -4 24 32
0000f0 88 5c 1a 5d 55 d5 51 e8 33 21 20 1e de ae f6 de
       -120 92 26 93 85 -43 81 -24 51 33 32 30 -34 -82 -10 -34

tfl.pseudo_qconst11 i1 [1, 9, 1, 32]
000000 7e 77 cb 01 bd c0 f5 81 28 12 05 44 1c 40 eb a4
       126 119 -53 1 -67 -64 -11 -127 40 18 5 68 28 64 -21 -92
000010 c5 dd e1 81 e8 ff d5 45 6a 00 c4 7f 59 c8 e1 de
       -59 -35 -31 -127 -24 -1 -43 69 106 0 -60 127 89 -56 -31 -34
000020 29 7f 9a 09 7f a4 46 8a 30 af a6 d2 05 2b 0c 31
       41 127 -102 9 127 -92 70 -118 48 -81 -90 -46 5 43 12 49
000030 3d 07 1c a6 68 ee b2 17 24 e6 12 4f 37 81 e1 14
       61 7 28 -90 104 -18 -78 23 36 -26 18 79 55 -127 -31 20
000040 1c 50 da f4 64 03 7f ab 07 86 81 18 44 ad 09 3c
       28 80 -38 -12 100 3 127 -85 7 -122 -127 24 68 -83 9 60
000050 52 ad c2 c9 6b fb fd 61 31 1f be 0e 06 21 1e 2c
       82 -83 -62 -55 107 -5 -3 97 49 31 -66 14 6 33 30 44
000060 35 60 a3 3b 74 17 39 f6 81 2e d0 07 e4 da bd 6b
       53 96 -93 59 116 23 57 -10 -127 46 -48 7 -28 -38 -67 107
000070 e7 07 81 ac 60 d7 1d 46 51 7f 46 10 08 1a 2e 38
       -25 7 -127 -84 96 -41 29 70 81 127 70 16 8 26 46 56
000080 29 1e ba 34 04 1c b5 1b 9b ee 00 df 7f 48 e1 01
       41 30 -70 52 4 28 -75 27 -101 -18 0 -33 127 72 -31 1
000090 e9 d4 2a dc a3 2c a3 37 12 2e 04 b4 e4 49 c6 f9
       -23 -44 42 -36 -93 44 -93 55 18 46 4 -76 -28 73 -58 -7
0000a0 26 26 81 7f bc fc a7 e0 c2 21 46 e8 7e d7 e4 60
       38 38 -127 127 -68 -4 -89 -32 -62 33 70 -24 126 -41 -28 96
0000b0 e5 f5 20 c8 84 ef 81 47 7f 39 fa ad e4 2c de 11
       -27 -11 32 -56 -124 -17 -127 71 127 57 -6 -83 -28 44 -34 17
0000c0 63 1d e9 f3 f3 7f 8c d1 c4 01 66 92 66 b4 df 14
       99 29 -23 -13 -13 127 -116 -47 -60 1 102 -110 102 -76 -33 20
0000d0 53 58 b3 c4 e0 d1 ad 63 25 44 68 86 f2 3e b6 f2
       83 88 -77 -60 -32 -47 -83 99 37 68 104 -122 -14 62 -74 -14
0000e0 1b d6 b0 13 ca 70 1d d5 6c 7f c2 81 53 a6 9a 7f
       27 -42 -80 19 -54 112 29 -43 108 127 -62 -127 83 -90 -102 127
0000f0 7f 46 d5 c7 81 91 9e 67 2f 6d 18 f2 a0 ef 81 37
       127 70 -43 -57 -127 -111 -98 103 47 109 24 -14 -96 -17 -127 55

tfl.pseudo_qconst13 i1 [64, 1, 1, 64]
000000 0f 15 0a 10 e9 cf 0e de 1a ce 42 ea f5 f6 2c 3c
       15 21 10 16 -23 -49 14 -34 26 -50 66 -22 -11 -10 44 60
000010 f3 f8 fb f1 07 02 2a 27 f5 ea 2b c4 dc 30 e8 e6
       -13 -8 -5 -15 7 2 42 39 -11 -22 43 -60 -36 48 -24 -26
000020 0f 5a 15 e9 da 43 44 fc d2 d7 02 19 00 0a f1 cb
       15 90 21 -23 -38 67 68 -4 -46 -41 2 25 0 10 -15 -53
000030 f4 3b ec c6 af f4 7f 31 ef 2f 21 de eb d6 ea d3
       -12 59 -20 -58 -81 -12 127 49 -17 47 33 -34 -21 -42 -22 -45
000040 a4 6d 25 62 46 68 3c 9e c9 c1 d3 20 2f a7 c9 f4
       -92 109 37 98 70 104 60 -98 -55 -63 -45 32 47 -89 -55 -12
000050 3c fd ad be 1a 09 c7 41 e5 f5 de da 2e 81 f0 53
       60 -3 -83 -66 26 9 -57 65 -27 -11 -34 -38 46 -127 -16 83
000060 50 e7 d4 bf e6 f5 14 d6 38 c0 a8 c5 35 27 99 0b
       80 -25 -44 -65 -26 -11 20 -42 56 -64 -88 -59 53 39 -103 11
000070 db b1 eb b3 06 a9 e4 b2 03 8b ec 4e d5 2b 9c 0d
       -37 -79 -21 -77 6 -87 -28 -78 3 -117 -20 78 -43 43 -100 13
000080 10 b2 12 fb 19 17 f8 56 f0 8b b1 c8 f1 da 17 4d
       16 -78 18 -5 25 23 -8 86 -16 -117 -79 -56 -15 -38 23 77
000090 b8 93 1a 63 b5 35 21 87 ce 0f 36 d2 2c 1d 94 26
       -72 -109 26 99 -75 53 33 -121 -50 15 54 -46 44 29 -108 38
0000a0 c0 f8 d5 ce f4 d3 b3 c1 6c 0f 1b 69 ab 9b 2d 48
       -64 -8 -43 -50 -12 -45 -77 -63 108 15 27 105 -85 -101 45 72
0000b0 78 4f 23 9a 16 81 18 55 c6 1e 1b 0c 12 1a 57 f0
       120 79 35 -102 22 -127 24 85 -58 30 27 12 18 26 87 -16
0000c0 dd a3 a1 3d a9 e3 f8 36 5e 4f 42 ee fc 2c c2 1a
       -35 -93 -95 61 -87 -29 -8 54 94 79 66 -18 -4 44 -62 26
0000d0 bb 4a 45 21 ff eb cf d1 81 25 dc e1 ec 19 0a 4a
       -69 74 69 33 -1 -21 -49 -47 -127 37 -36 -31 -20 25 10 74
0000e0 46 ae ff 30 01 fb ee 50 12 4d 2e c2 e6 1d ca e1
       70 -82 -1 48 1 -5 -18 80 18 77 46 -62 -26 29 -54 -31
0000f0 4c e2 d2 e5 55 0f 17 16 0d 11 36 54 d2 ea f6 e6
       76 -30 -46 -27 85 15 23 22 13 17 54 84 -46 -22 -10 -26

tfl.pseudo_qconst15 i1 [1, 11, 1, 32]
000000 11 b9 34 81 e9 01 81 b2 d9 da e7 e0 14 e6 13 3d
       17 -71 52 -127 -23 1 -127 -78 -39 -38 -25 -32 20 -26 19 61
000010 bb af 3d 23 d9 cc f2 7f 4c 92 be 00 a1 e6 df f1
       -69 -81 61 35 -39 -52 -14 127 76 -110 -66 0 -95 -26 -33 -15
000020 b4 ab bf f7 92 ed 07 b0 e9 e9 2b da 20 94 67 cf
       -76 -85 -65 -9 -110 -19 7 -80 -23 -23 43 -38 32 -108 103 -49
000030 9d e7 fe 0a ae 23 98 2d 08 a6 1a e4 81 81 86 2c
       -99 -25 -2 10 -82 35 -104 45 8 -90 26 -28 -127 -127 -122 44
000040 c6 30 9a cf d9 45 4e bb 81 e4 2c f9 7f 29 34 e8
       -58 48 -102 -49 -39 69 78 -69 -127 -28 44 -7 127 41 52 -24
000050 81 af 9a cb dd 09 9b f8 a3 81 1f c3 e4 e6 aa ee
       -127 -81 -102 -53 -35 9 -101 -8 -93 -127 31 -61 -28 -26 -86 -18
000060 20 7f c1 39 2d 49 5d 02 e3 c8 dd 81 75 55 8e fc
       32 127 -63 57 45 73 93 2 -29 -56 -35 -127 117 85 -114 -4
000070 b4 d8 c8 35 36 16 e8 e7 fe c8 0d fc f9 ca 52 bf
       -76 -40 -56 53 54 22 -24 -25 -2 -56 13 -4 -7 -54 82 -65
000080 63 33 ba 4b 34 7f 4b 48 17 cb b2 b4 2c f7 b5 1a
       99 51 -70 75 52 127 75 72 23 -53 -78 -76 44 -9 -75 26
000090 cc ff 19 dc 2f ff 03 f5 c0 b4 14 eb ea 16 7d 08
       -52 -1 25 -36 47 -1 3 -11 -64 -76 20 -21 -22 22 125 8
0000a0 44 64 7f 1e 1e 68 32 1d f8 2d b8 c1 53 b2 1d 9d
       68 100 127 30 30 104 50 29 -8 45 -72 -63 83 -78 29 -99
0000b0 26 c9 81 25 c4 06 2c 29 89 9e df 2e c1 b1 3a 81
       38 -55 -127 37 -60 6 44 41 -119 -98 -33 46 -63 -79 58 -127
0000c0 7f 57 25 32 4d 95 cf 11 f3 58 b1 0f d2 81 2c ae
       127 87 37 50 77 -107 -49 17 -13 88 -79 15 -46 -127 44 -82
0000d0 13 f0 2f 04 2e 1b 1c d2 bd 08 94 41 e7 c2 f9 a7
       19 -16 47 4 46 27 28 -46 -67 8 -108 65 -25 -62 -7 -89
0000e0 59 35 59 db 7f ae e3 3e d6 31 e1 31 b6 cf 81 7f
       89 53 89 -37 127 -82 -29 62 -42 49 -31 49 -74 -49 -127 127
0000f0 c4 7f 2e 67 55 0d 7f df 49 16 e5 29 19 e4 fe fc
       -60 127 46 103 85 13 127 -33 73 22 -27 41 25 -28 -2 -4

tfl.pseudo_qconst17 i1 [1, 7, 1, 32]
000000 2a 9c 5f 17 07 d5 0c 17 63 d0 09 81 1a fd 7f 12
       42 -100 95 23 7 -43 12 23 99 -48 9 -127 26 -3 127 18
000010 8c 61 e4 81 7f d7 3c 11 f8 f2 f4 c8 08 c0 3c 81
       -116 97 -28 -127 127 -41 60 17 -8 -14 -12 -56 8 -64 60 -127
000020 ec 37 b5 43 7f 8c 9b b8 7f d1 29 c1 7f 58 68 22
       -20 55 -75 67 127 -116 -101 -72 127 -47 41 -63 127 88 104 34
000030 27 3b ad d4 6c ff 96 15 6e e9 fe 14 78 b5 c8 81
       39 59 -83 -44 108 -1 -106 21 110 -23 -2 20 120 -75 -56 -127
000040 9c 55 81 44 64 81 81 d9 0e 2e 36 ce ce 4f 62 58
       -100 85 -127 68 100 -127 -127 -39 14 46 54 -50 -50 79 98 88
000050 20 fc 7c ff 36 ad 13 08 63 41 62 3d 7f 0f c5 c0
       32 -4 124 -1 54 -83 19 8 99 65 98 61 127 15 -59 -64
000060 09 d5 16 da d0 bd 50 d0 8e 7f c7 a0 3e 32 e3 0c
       9 -43 22 -38 -48 -67 80 -48 -114 127 -57 -96 62 50 -29 12
000070 fa a1 7f 30 bb d6 37 46 b4 81 5f 6f 0a d4 08 b3
       -6 -95 127 48 -69 -42 55 70 -76 -127 95 111 10 -44 8 -77
000080 de cb e4 81 e1 a3 7e 7d 9f 73 81 0d 59 35 10 05
       -34 -53 -28 -127 -31 -93 126 125 -97 115 -127 13 89 53 16 5
000090 0f 81 d0 fb 2d 27 02 47 9b c7 3f 41 30 81 fb c4
       15 -127 -48 -5 45 39 2 71 -101 -57 63 65 48 -127 -5 -60
0000a0 e5 ad 7f 00 e1 ce 25 72 fe 07 96 cc f2 30 aa 81
       -27 -83 127 0 -31 -50 37 114 -2 7 -106 -52 -14 48 -86 -127
0000b0 c6 e7 fe 9a e4 81 a4 f2 96 29 8f 03 25 96 f1 e6
       -58 -25 -2 -102 -28 -127 -92 -14 -106 41 -113 3 37 -106 -15 -26
0000c0 81 81 dd fb a1 54 19 7f 21 cf 0b d2 a1 81 b6 ea
       -127 -127 -35 -5 -95 84 25 127 33 -49 11 -46 -95 -127 -74 -22
0000d0 7f f8 8a 9d 3c 68 81 7f 7f 19 81 7f 51 d7 7f e4
       127 -8 -118 -99 60 104 -127 127 127 25 -127 127 81 -41 127 -28

tfl.pseudo_qconst19 i1 [64, 1, 1, 32]
000000 00 f1 26 42 16 1d e5 14 c3 fa 4c 33 31 01 0f e9
       0 -15 38 66 22 29 -27 20 -61 -6 76 51 49 1 15 -23
000010 1e e5 7f f8 fe ce 1e ed 9b ce 44 00 0c af c3 c0
       30 -27 127 -8 -2 -50 30 -19 -101 -50 68 0 12 -81 -61 -64
000020 0e 3d d3 1d e7 c5 2f f1 ce 56 f5 98 46 61 0d be
       14 61 -45 29 -25 -59 47 -15 -50 86 -11 -104 70 97 13 -66
000030 11 ef 7f c9 ff f3 f7 33 fc 45 6c 2d 95 c1 72 1a
       17 -17 127 -55 -1 -13 -9 51 -4 69 108 45 -107 -63 114 26
000040 f1 09 52 fb b1 02 e5 ff eb 81 de cf a6 e3 13 1a
       -15 9 82 -5 -79 2 -27 -1 -21 -127 -34 -49 -90 -29 19 26
000050 4b b9 2d af b4 44 09 00 e3 31 dc 03 d6 e3 fd 0c
       75 -71 45 -81 -76 68 9 0 -29 49 -36 3 -42 -29 -3 12
000060 e7 d5 25 d5 0d 00 b2 58 0a c7 7f 21 c2 e4 ee ee
       -25 -43 37 -43 13 0 -78 88 10 -57 127 33 -62 -28 -18 -18
000070 d7 24 39 47 0b de 5d 0c 0c 27 b9 e7 af b3 1b 48
       -41 36 57 71 11 -34 93 12 12 39 -71 -25 -81 -77 27 72
000080 43 37 c4 4e 33 c3 2f fa 31 fb b9 d1 30 45 05 10
       67 55 -60 78 51 -61 47 -6 49 -5 -71 -47 48 69 5 16
000090 3c 00 d8 00 ff fd 6a 44 a5 f3 60 67 7f e2 13 12
       60 0 -40 0 -1 -3 106 68 -91 -13 96 103 127 -30 19 18
0000a0 ff e8 7f 69 2a 3d 36 df e0 5d 2d ed af 04 db d3
       -1 -24 127 105 42 61 54 -33 -32 93 45 -19 -81 4 -37 -45
0000b0 38 38 8d d9 40 f5 c7 16 d3 91 ec 41 63 e8 cc f6
       56 56 -115 -39 64 -11 -57 22 -45 -111 -20 65 99 -24 -52 -10
0000c0 3e 1e 2a 48 06 1c 24 00 47 40 7f 21 d2 26 12 c0
       62 30 42 72 6 28 36 0 71 64 127 33 -46 38 18 -64
0000d0 14 d6 40 0a e8 bb 11 d0 f5 ef 6f 4b 34 0e ed 1b
       20 -42 64 10 -24 -69 17 -48 -11 -17 111 75 52 14 -19 27
0000e0 a6 cc ed 01 05 26 1f 12 d3 f0 ca f0 d4 12 38 e4
       -90 -52 -19 1 5 38 31 18 -45 -16 -54 -16 -44 18 56 -28
0000f0 db 3b 50 18 0a e9 2b 05 34 7f db 07 b8 d5 1f 1c
       -37 59 80 24 10 -23 43 5 52 127 -37 7 -72 -43 31 28

tfl.pseudo_qconst21 i1 [1, 5, 1, 32]
000000 95 1d 35 46 81 ca ee f7 7f 1f 41 81 26 7f 14 a9
       -107 29 53 70 -127 -54 -18 -9 127 31 65 -127 38 127 20 -87
000010 5b 7f e3 d9 42 b1 92 fd cb 21 a6 63 b8 46 61 d9
       91 127 -29 -39 66 -79 -110 -3 -53 33 -90 99 -72 70 97 -39
000020 81 8a db a0 65 d6 8c 9a 44 bc 15 ea 7f 96 81 60
       -127 -118 -37 -96 101 -42 -116 -102 68 -68 21 -22 127 -106 -127 96
000030 8f 96 ae 3d d3 16 81 dd 47 c0 7f 8a 54 6e cf 0a
       -113 -106 -82 61 -45 22 -127 -35 71 -64 127 -118 84 110 -49 10
000040 20 78 b5 91 32 a1 2f 7f 51 81 b8 e9 a1 ad 18 71
       32 120 -75 -111 50 -95 47 127 81 -127 -72 -23 -95 -83 24 113
000050 81 f0 c1 a4 48 82 c1 fb 18 42 66 2a 81 ee a5 81
       -127 -16 -63 -92 72 -126 -63 -5 24 66 102 42 -127 -18 -91 -127
000060 e6 7f f7 ae 73 49 64 bc ec d3 b9 1e 9c 4d 4b 70
       -26 127 -9 -82 115 73 100 -68 -20 -45 -71 30 -100 77 75 112
000070 ba 20 81 f9 7f 81 0f ea 17 7f d0 7f a7 81 81 48
       -70 32 -127 -7 127 -127 15 -22 23 127 -48 127 -89 -127 -127 72
000080 4a d2 7f 81 1a 7f 7f df 07 3b 7f ca 33 c4 c3 7f
       74 -46 127 -127 26 127 127 -33 7 59 127 -54 51 -60 -61 127
000090 67 3b 97 7f d2 53 15 81 7f 47 be 5c e6 25 f7 1f
       103 59 -105 127 -46 83 21 -127 127 71 -66 92 -26 37 -9 31

tfl.pseudo_qconst23 i1 [32, 5, 1, 40]
000000 2c 1a d2 ba af 13 fe e7 38 fe 11 f2 41 f3 04 2f
       44 26 -46 -70 -81 19 -2 -25 56 -2 17 -14 65 -13 4 47
000010 f0 0e 18 ec ce cd fd da 0a 03 38 4d 1a 4b 02 be
       -16 14 24 -20 -50 -51 -3 -38 10 3 56 77 26 75 2 -66
000020 0e 40 ef f5 1c db ce fa 16 10 db e2 d7 f8 1c 05
       14 64 -17 -11 28 -37 -50 -6 22 16 -37 -30 -41 -8 28 5
000030 2a e0 03 11 34 dd 03 3e 00 33 10 e0 f9 c2 03 01
       42 -32 3 17 52 -35 3 62 0 51 16 -32 -7 -62 3 1
000040 0a 4e 2a 2f 29 1e 1b f3 01 46 21 3a 1b 19 d5 ca
       10 78 42 47 41 30 27 -13 1 70 33 58 27 25 -43 -54
000050 00 02 00 b9 bd f5 18 db 3c fd 13 e8 25 0a 14 27
       0 2 0 -71 -67 -11 24 -37 60 -3 19 -24 37 10 20 39
000060 08 ef 0a e9 d3 da f4 e9 27 1d 5c 5c 08 2e 0c 33
       8 -17 10 -23 -45 -38 -12 -23 39 29 92 92 8 46 12 51
000070 33 7f 49 fd 24 c6 d9 ee 16 ec 22 0a e9 d6 ee e3
       51 127 73 -3 36 -58 -39 -18 22 -20 34 10 -23 -42 -18 -29
000080 18 c4 dd c8 28 0f e4 03 0b 27 02 d5 f4 04 fa f7
       24 -60 -35 -56 40 15 -28 3 11 39 2 -43 -12 4 -6 -9
000090 47 44 65 4a 15 28 1b f9 25 4c 29 1d ed d4 d4 ba
       71 68 101 74 21 40 27 -7 37 76 41 29 -19 -44 -44 -70
0000a0 f7 d2 eb bd f3 19 f9 f0 0b b7 0a fd 1b e0 e6 f9
       -9 -46 -21 -67 -13 25 -7 -16 11 -73 10 -3 27 -32 -26 -7
0000b0 0c ed fd ed d7 cb ec 04 3a 6c f5 f7 f8 07 09 e5
       12 -19 -3 -19 -41 -53 -20 4 58 108 -11 -9 -8 7 9 -27
0000c0 0e 35 34 24 07 ec d3 db 03 ad fd 91 81 ca bd 0c
       14 53 52 36 7 -20 -45 -37 3 -83 -3 -111 -127 -54 -67 12
0000d0 21 fa e6 ec cc df e4 ec f4 0f 26 07 c6 d0 d0 f9
       33 -6 -26 -20 -52 -33 -28 -20 -12 15 38 7 -58 -48 -48 -7
0000e0 c6 d8 be f5 c7 12 30 1a d1 df 22 08 d5 06 07 09
       -58 -40 -66 -11 -57 18 48 26 -47 -33 34 8 -43 6 7 9
0000f0 dc ec 8b 9d b1 03 cd bc f0 1b bf e3 04 fc 1b de
       -36 -20 -117 -99 -79 3 -51 -68 -16 27 -65 -29 4 -4 27 -34

tfl.pseudo_qconst24 i1 [1, 14, 1, 64] scale=0.04120131 zero_point=-128
000000 80 80 80 80 80 80 80 80 80 80 80 80 80 80 80 80
       0.0 0.0 0.0 0.0 0.0 0.0 0.0 0.0 0.0 0.0 0.0 0.0 0.0 0.0 0.0 0.0
000010 80 80 80 80 80 80 80 80 80 80 80 80 80 80 80 80
       0.0 0.0 0.0 0.0 0.0 0.0 0.0 0.0 0.0 0.0 0.0 0.0 0.0 0.0 0.0 0.0
000020 80 80 80 80 80 80 80 80 80 80 80 80 80 80 80 80
       0.0 0.0 0.0 0.0 0.0 0.0 0.0 0.0 0.0 0.0 0.0 0.0 0.0 0.0 0.0 0.0
000030 80 80 80 80 80 80 80 80 80 80 80 80 80 80 80 80
       0.0 0.0 0.0 0.0 0.0 0.0 0.0 0.0 0.0 0.0 0.0 0.0 0.0 0.0 0.0 0.0
000040 80 80 80 80 80 80 80 80 80 80 80 80 80 80 80 80
       0.0 0.0 0.0 0.0 0.0 0.0 0.0 0.0 0.0 0.0 0.0 0.0 0.0 0.0 0.0 0.0
000050 80 80 80 80 80 80 80 80 80 80 80 80 80 80 80 80
       0.0 0.0 0.0 0.0 0.0 0.0 0.0 0.0 0.0 0.0 0.0 0.0 0.0 0.0 0.0 0.0
000060 80 80 80 80 80 80 80 80 80 80 80 80 80 80 80 80
       0.0 0.0 0.0 0.0 0.0 0.0 0.0 0.0 0.0 0.0 0.0 0.0 0.0 0.0 0.0 0.0
000070 80 80 80 80 80 80 80 80 80 80 80 80 80 80 80 80
       0.0 0.0 0.0 0.0 0.0 0.0 0.0 0.0 0.0 0.0 0.0 0.0 0.0 0.0 0.0 0.0
000080 80 80 80 80 80 80 80 80 80 80 80 80 80 80 80 80
       0.0 0.0 0.0 0.0 0.0 0.0 0.0 0.0 0.0 0.0 0.0 0.0 0.0 0.0 0.0 0.0
000090 80 80 80 80 80 80 80 80 80 80 80 80 80 80 80 80
       0.0 0.0 0.0 0.0 0.0 0.0 0.0 0.0 0.0 0.0 0.0 0.0 0.0 0.0 0.0 0.0
0000a0 80 80 80 80 80 80 80 80 80 80 80 80 80 80 80 80
       0.0 0.0 0.0 0.0 0.0 0.0 0.0 0.0 0.0 0.0 0.0 0.0 0.0 0.0 0.0 0.0
0000b0 80 80 80 80 80 80 80 80 80 80 80 80 80 80 80 80
       0.0 0.0 0.0 0.0 0.0 0.0 0.0 0.0 0.0 0.0 0.0 0.0 0.0 0.0 0.0 0.0
0000c0 80 80 80 80 80 80 80 80 80 80 80 80 80 80 80 80
       0.0 0.0 0.0 0.0 0.0 0.0 0.0 0.0 0.0 0.0 0.0 0.0 0.0 0.0 0.0 0.0
0000d0 80 80 80 80 80 80 80 80 80 80 80 80 80 80 80 80
       0.0 0.0 0.0 0.0 0.0 0.0 0.0 0.0 0.0 0.0 0.0 0.0 0.0 0.0 0.0 0.0
0000e0 80 80 80 80 80 80 80 80 80 80 80 80 80 80 80 80
       0.0 0.0 0.0 0.0 0.0 0.0 0.0 0.0 0.0 0.0 0.0 0.0 0.0 0.0 0.0 0.0
0000f0 80 80 80 80 80 80 80 80 80 80 80 80 80 80 80 80
       0.0 0.0 0.0 0.0 0.0 0.0 0.0 0.0 0.0 0.0 0.0 0.0 0.0 0.0 0.0 0.0

tfl.pseudo_qconst25 i1 [1, 10, 1, 64] scale=0.040060822 zero_point=-128
000000 80 80 80 80 80 80 80 80 80 80 80 80 80 80 80 80
       0.0 0.0 0.0 0.0 0.0 0.0 0.0 0.0 0.0 0.0 0.0 0.0 0.0 0.0 0.0 0.0
000010 80 80 80 80 80 80 80 80 80 80 80 80 80 80 80 80
       0.0 0.0 0.0 0.0 0.0 0.0 0.0 0.0 0.0 0.0 0.0 0.0 0.0 0.0 0.0 0.0
000020 80 80 80 80 80 80 80 80 80 80 80 80 80 80 80 80
       0.0 0.0 0.0 0.0 0.0 0.0 0.0 0.0 0.0 0.0 0.0 0.0 0.0 0.0 0.0 0.0
000030 80 80 80 80 80 80 80 80 80 80 80 80 80 80 80 80
       0.0 0.0 0.0 0.0 0.0 0.0 0.0 0.0 0.0 0.0 0.0 0.0 0.0 0.0 0.0 0.0
000040 80 80 80 80 80 80 80 80 80 80 80 80 80 80 80 80
       0.0 0.0 0.0 0.0 0.0 0.0 0.0 0.0 0.0 0.0 0.0 0.0 0.0 0.0 0.0 0.0
000050 80 80 80 80 80 80 80 80 80 80 80 80 80 80 80 80
       0.0 0.0 0.0 0.0 0.0 0.0 0.0 0.0 0.0 0.0 0.0 0.0 0.0 0.0 0.0 0.0
000060 80 80 80 80 80 80 80 80 80 80 80 80 80 80 80 80
       0.0 0.0 0.0 0.0 0.0 0.0 0.0 0.0 0.0 0.0 0.0 0.0 0.0 0.0 0.0 0.0
000070 80 80 80 80 80 80 80 80 80 80 80 80 80 80 80 80
       0.0 0.0 0.0 0.0 0.0 0.0 0.0 0.0 0.0 0.0 0.0 0.0 0.0 0.0 0.0 0.0
000080 80 80 80 80 80 80 80 80 80 80 80 80 80 80 80 80
       0.0 0.0 0.0 0.0 0.0 0.0 0.0 0.0 0.0 0.0 0.0 0.0 0.0 0.0 0.0 0.0
000090 80 80 80 80 80 80 80 80 80 80 80 80 80 80 80 80
       0.0 0.0 0.0 0.0 0.0 0.0 0.0 0.0 0.0 0.0 0.0 0.0 0.0 0.0 0.0 0.0
0000a0 80 80 80 80 80 80 80 80 80 80 80 80 80 80 80 80
       0.0 0.0 0.0 0.0 0.0 0.0 0.0 0.0 0.0 0.0 0.0 0.0 0.0 0.0 0.0 0.0
0000b0 80 80 80 80 80 80 80 80 80 80 80 80 80 80 80 80
       0.0 0.0 0.0 0.0 0.0 0.0 0.0 0.0 0.0 0.0 0.0 0.0 0.0 0.0 0.0 0.0
0000c0 80 80 80 80 80 80 80 80 80 80 80 80 80 80 80 80
       0.0 0.0 0.0 0.0 0.0 0.0 0.0 0.0 0.0 0.0 0.0 0.0 0.0 0.0 0.0 0.0
0000d0 80 80 80 80 80 80 80 80 80 80 80 80 80 80 80 80
       0.0 0.0 0.0 0.0 0.0 0.0 0.0 0.0 0.0 0.0 0.0 0.0 0.0 0.0 0.0 0.0
0000e0 80 80 80 80 80 80 80 80 80 80 80 80 80 80 80 80
       0.0 0.0 0.0 0.0 0.0 0.0 0.0 0.0 0.0 0.0 0.0 0.0 0.0 0.0 0.0 0.0
0000f0 80 80 80 80 80 80 80 80 80 80 80 80 80 80 80 80
       0.0 0.0 0.0 0.0 0.0 0.0 0.0 0.0 0.0 0.0 0.0 0.0 0.0 0.0 0.0 0.0

tfl.pseudo_qconst26 i1 [1, 4, 1, 32] scale=0.7144603 zero_point=-128
000000 80 80 80 80 80 80 80 80 80 80 80 80 80 80 80 80
       0.0 0.0 0.0 0.0 0.0 0.0 0.0 0.0 0.0 0.0 0.0 0.0 0.0 0.0 0.0 0.0
000010 80 80 80 80 80 80 80 80 80 80 80 80 80 80 80 80
       0.0 0.0 0.0 0.0 0.0 0.0 0.0 0.0 0.0 0.0 0.0 0.0 0.0 0.0 0.0 0.0
000020 80 80 80 80 80 80 80 80 80 80 80 80 80 80 80 80
       0.0 0.0 0.0 0.0 0.0 0.0 0.0 0.0 0.0 0.0 0.0 0.0 0.0 0.0 0.0 0.0
000030 80 80 80 80 80 80 80 80 80 80 80 80 80 80 80 80
       0.0 0.0 0.0 0.0 0.0 0.0 0.0 0.0 0.0 0.0 0.0 0.0 0.0 0.0 0.0 0.0
000040 80 80 80 80 80 80 80 80 80 80 80 80 80 80 80 80
       0.0 0.0 0.0 0.0 0.0 0.0 0.0 0.0 0.0 0.0 0.0 0.0 0.0 0.0 0.0 0.0
000050 80 80 80 80 80 80 80 80 80 80 80 80 80 80 80 80
       0.0 0.0 0.0 0.0 0.0 0.0 0.0 0.0 0.0 0.0 0.0 0.0 0.0 0.0 0.0 0.0
000060 80 80 80 80 80 80 80 80 80 80 80 80 80 80 80 80
       0.0 0.0 0.0 0.0 0.0 0.0 0.0 0.0 0.0 0.0 0.0 0.0 0.0 0.0 0.0 0.0
000070 80 80 80 80 80 80 80 80 80 80 80 80 80 80 80 80
       0.0 0.0 0.0 0.0 0.0 0.0 0.0 0.0 0.0 0.0 0.0 0.0 0.0 0.0 0.0 0.0

tfl.pseudo_qconst27 i1 [1, 2, 1, 40] scale=0.101960786 zero_point=-128
000000 80 80 80 80 80 80 80 80 80 80 80 80 80 80 80 80
       0.0 0.0 0.0 0.0 0.0 0.0 0.0 0.0 0.0 0.0 0.0 0.0 0.0 0.0 0.0 0.0
000010 80 80 80 80 80 80 80 80 80 80 80 80 80 80 80 80
       0.0 0.0 0.0 0.0 0.0 0.0 0.0 0.0 0.0 0.0 0.0 0.0 0.0 0.0 0.0 0.0
000020 80 80 80 80 80 80 80 80 80 80 80 80 80 80 80 80
       0.0 0.0 0.0 0.0 0.0 0.0 0.0 0.0 0.0 0.0 0.0 0.0 0.0 0.0 0.0 0.0
000030 80 80 80 80 80 80 80 80 80 80 80 80 80 80 80 80
       0.0 0.0 0.0 0.0 0.0 0.0 0.0 0.0 0.0 0.0 0.0 0.0 0.0 0.0 0.0 0.0
000040 80 80 80 80 80 80 80 80 80 80 80 80 80 80 80 80
       0.0 0.0 0.0 0.0 0.0 0.0 0.0 0.0 0.0 0.0 0.0 0.0 0.0 0.0 0.0 0.0

tfl.pseudo_qconst28 i1 [1, 16, 1, 64] scale=0.024957035 zero_point=-128
000000 80 80 80 80 80 80 80 80 80 80 80 80 80 80 80 80
       0.0 0.0 0.0 0.0 0.0 0.0 0.0 0.0 0.0 0.0 0.0 0.0 0.0 0.0 0.0 0.0
000010 80 80 80 80 80 80 80 80 80 80 80 80 80 80 80 80
       0.0 0.0 0.0 0.0 0.0 0.0 0.0 0.0 0.0 0.0 0.0 0.0 0.0 0.0 0.0 0.0
000020 80 80 80 80 80 80 80 80 80 80 80 80 80 80 80 80
       0.0 0.0 0.0 0.0 0.0 0.0 0.0 0.0 0.0 0.0 0.0 0.0 0.0 0.0 0.0 0.0
000030 80 80 80 80 80 80 80 80 80 80 80 80 80 80 80 80
       0.0 0.0 0.0 0.0 0.0 0.0 0.0 0.0 0.0 0.0 0.0 0.0 0.0 0.0 0.0 0.0
000040 80 80 80 80 80 80 80 80 80 80 80 80 80 80 80 80
       0.0 0.0 0.0 0.0 0.0 0.0 0.0 0.0 0.0 0.0 0.0 0.0 0.0 0.0 0.0 0.0
000050 80 80 80 80 80 80 80 80 80 80 80 80 80 80 80 80
       0.0 0.0 0.0 0.0 0.0 0.0 0.0 0.0 0.0 0.0 0.0 0.0 0.0 0.0 0.0 0.0
000060 80 80 80 80 80 80 80 80 80 80 80 80 80 80 80 80
       0.0 0.0 0.0 0.0 0.0 0.0 0.0 0.0 0.0 0.0 0.0 0.0 0.0 0.0 0.0 0.0
000070 80 80 80 80 80 80 80 80 80 80 80 80 80 80 80 80
       0.0 0.0 0.0 0.0 0.0 0.0 0.0 0.0 0.0 0.0 0.0 0.0 0.0 0.0 0.0 0.0
000080 80 80 80 80 80 80 80 80 80 80 80 80 80 80 80 80
       0.0 0.0 0.0 0.0 0.0 0.0 0.0 0.0 0.0 0.0 0.0 0.0 0.0 0.0 0.0 0.0
000090 80 80 80 80 80 80 80 80 80 80 80 80 80 80 80 80
       0.0 0.0 0.0 0.0 0.0 0.0 0.0 0.0 0.0 0.0 0.0 0.0 0.0 0.0 0.0 0.0
0000a0 80 80 80 80 80 80 80 80 80 80 80 80 80 80 80 80
       0.0 0.0 0.0 0.0 0.0 0.0 0.0 0.0 0.0 0.0 0.0 0.0 0.0 0.0 0.0 0.0
0000b0 80 80 80 80 80 80 80 80 80 80 80 80 80 80 80 80
       0.0 0.0 0.0 0.0 0.0 0.0 0.0 0.0 0.0 0.0 0.0 0.0 0.0 0.0 0.0 0.0
0000c0 80 80 80 80 80 80 80 80 80 80 80 80 80 80 80 80
       0.0 0.0 0.0 0.0 0.0 0.0 0.0 0.0 0.0 0.0 0.0 0.0 0.0 0.0 0.0 0.0
0000d0 80 80 80 80 80 80 80 80 80 80 80 80 80 80 80 80
       0.0 0.0 0.0 0.0 0.0 0.0 0.0 0.0 0.0 0.0 0.0 0.0 0.0 0.0 0.0 0.0
0000e0 80 80 80 80 80 80 80 80 80 80 80 80 80 80 80 80
       0.0 0.0 0.0 0.0 0.0 0.0 0.0 0.0 0.0 0.0 0.0 0.0 0.0 0.0 0.0 0.0
0000f0 80 80 80 80 80 80 80 80 80 80 80 80 80 80 80 80
       0.0 0.0 0.0 0.0 0.0 0.0 0.0 0.0 0.0 0.0 0.0 0.0 0.0 0.0 0.0 0.0

tfl.pseudo_qconst29 i1 [1, 22, 1, 64] scale=0.033577163 zero_point=-128
000000 80 80 80 80 80 80 80 80 80 80 80 80 80 80 80 80
       0.0 0.0 0.0 0.0 0.0 0.0 0.0 0.0 0.0 0.0 0.0 0.0 0.0 0.0 0.0 0.0
000010 80 80 80 80 80 80 80 80 80 80 80 80 80 80 80 80
       0.0 0.0 0.0 0.0 0.0 0.0 0.0 0.0 0.0 0.0 0.0 0.0 0.0 0.0 0.0 0.0
000020 80 80 80 80 80 80 80 80 80 80 80 80 80 80 80 80
       0.0 0.0 0.0 0.0 0.0 0.0 0.0 0.0 0.0 0.0 0.0 0.0 0.0 0.0 0.0 0.0
000030 80 80 80 80 80 80 80 80 80 80 80 80 80 80 80 80
       0.0 0.0 0.0 0.0 0.0 0.0 0.0 0.0 0.0 0.0 0.0 0.0 0.0 0.0 0.0 0.0
000040 80 80 80 80 80 80 80 80 80 80 80 80 80 80 80 80
       0.0 0.0 0.0 0.0 0.0 0.0 0.0 0.0 0.0 0.0 0.0 0.0 0.0 0.0 0.0 0.0
000050 80 80 80 80 80 80 80 80 80 80 80 80 80 80 80 80
       0.0 0.0 0.0 0.0 0.0 0.0 0.0 0.0 0.0 0.0 0.0 0.0 0.0 0.0 0.0 0.0
000060 80 80 80 80 80 80 80 80 80 80 80 80 80 80 80 80
       0.0 0.0 0.0 0.0 0.0 0.0 0.0 0.0 0.0 0.0 0.0 0.0 0.0 0.0 0.0 0.0
000070 80 80 80 80 80 80 80 80 80 80 80 80 80 80 80 80
       0.0 0.0 0.0 0.0 0.0 0.0 0.0 0.0 0.0 0.0 0.0 0.0 0.0 0.0 0.0 0.0
000080 80 80 80 80 80 80 80 80 80 80 80 80 80 80 80 80
       0.0 0.0 0.0 0.0 0.0 0.0 0.0 0.0 0.0 0.0 0.0 0.0 0.0 0.0 0.0 0.0
000090 80 80 80 80 80 80 80 80 80 80 80 80 80 80 80 80
       0.0 0.0 0.0 0.0 0.0 0.0 0.0 0.0 0.0 0.0 0.0 0.0 0.0 0.0 0.0 0.0
0000a0 80 80 80 80 80 80 80 80 80 80 80 80 80 80 80 80
       0.0 0.0 0.0 0.0 0.0 0.0 0.0 0.0 0.0 0.0 0.0 0.0 0.0 0.0 0.0 0.0
0000b0 80 80 80 80 80 80 80 80 80 80 80 80 80 80 80 80
       0.0 0.0 0.0 0.0 0.0 0.0 0.0 0.0 0.0 0.0 0.0 0.0 0.0 0.0 0.0 0.0
0000c0 80 80 80 80 80 80 80 80 80 80 80 80 80 80 80 80
       0.0 0.0 0.0 0.0 0.0 0.0 0.0 0.0 0.0 0.0 0.0 0.0 0.0 0.0 0.0 0.0
0000d0 80 80 80 80 80 80 80 80 80 80 80 80 80 80 80 80
       0.0 0.0 0.0 0.0 0.0 0.0 0.0 0.0 0.0 0.0 0.0 0.0 0.0 0.0 0.0 0.0
0000e0 80 80 80 80 80 80 80 80 80 80 80 80 80 80 80 80
       0.0 0.0 0.0 0.0 0.0 0.0 0.0 0.0 0.0 0.0 0.0 0.0 0.0 0.0 0.0 0.0
0000f0 80 80 80 80 80 80 80 80 80 80 80 80 80 80 80 80
       0.0 0.0 0.0 0.0 0.0 0.0 0.0 0.0 0.0 0.0 0.0 0.0 0.0 0.0 0.0 0.0
